duo_ppo_cartpole.safetensors (safetensors, 2492 bytes, 5 tensors)

actor.bias f4 [2]
0.13390641 0.029949121
00000000: c31e 093e dc57 f53c

actor.weight f4 [2, 64]
0.10515444 -0.20643018 0.11425789 -0.056266896 -0.20700762 -0.17197609 -0.032394968 -0.09601872
-0.08924144 -0.040207732 0.019168895 -0.029002124 0.07451986 0.10162618 0.20122871 0.17827101
0.25259537 -0.12327714 0.25299492 -0.0056692436 -0.0061006066 -0.08169722 0.109028935 -0.21947703
-0.09888116 0.17628708 0.115138724 0.34003618 -0.19112535 -0.18946601 0.2198705 0.09127358
0.30243656 0.08042386 -0.40681228 0.059612904 0.13743354 0.107051075 -0.18598744 0.28487542
-0.3178193 -0.20458034 -0.02660462 -0.06914353 0.043734517 0.14298633 0.0015471983 -0.07584535
-0.13160013 -0.11256214 0.13581294 -0.2059596 -0.012968678 0.15354854 0.0013895235 -0.06971836
-0.25977322 0.110869996 -0.26152834 -0.16309088 0.191656 0.13721868 0.03459889 0.16708183
0.053958964 0.010443703 -0.127729 0.13710524 0.101704724 0.22888143 0.07988336 0.043773063
0.1311116 0.17222513 -0.12733676 0.17069127 -0.049360503 -0.06351712 -0.22006157 -0.01030578
-0.29298115 0.07568696 -0.28577837 0.11236595 0.01778741 0.1565582 -0.1284535 0.15462054
0.20518522 -0.06621933 -0.048613798 -0.28667694 0.13327281 0.022935608 -0.30345652 -0.014763421
-0.119437106 -0.20215838 0.4392605 0.11680232 -0.18100743 -0.047920022 0.07125271 -0.43150738
0.28703406 0.09767158 0.13636015 0.19038193 -0.14820446 -0.15860611 0.029057516 0.012119924
-0.064002864 0.18050541 -0.031870406 0.16962485 -0.059667405 -0.16848247 -0.0008682516 -0.0023783236
0.2795141 0.06442151 0.106534615 0.14299229 -0.036078602 0.06166793 -0.057672553 0.04965049
00000000: 365b d73d 6f62 53be 0a00 ea3d 1e78 66bd
00000010: cef9 53be 801a 30be 96b0 04bd 76a5 c4bd
00000020: 37c4 b6bd ddb0 24bd 1608 9d3c dd95 edbc
00000030: de9d 983d 6321 d03d e60e 4e3e ad8c 363e
00000040: 2e54 813e ba78 fcbd 8d88 813e 10c5 b9bb
00000050: 99e7 c7bb df50 a7bd 904a df3d 96be 60be
00000060: 3582 cabd 9a84 343e dacd eb3d 3919 ae3e
00000070: 5db6 43be 6103 42be bb25 613e a5ed ba3d
00000080: f7d8 9a3e 44b5 a43d b349 d0be a92c 743d
00000090: 61bb 0c3e 983d db3d 7e73 3ebe 31db 913e
000000a0: 36b9 a2be 827d 51be eff1 d9bc 209b 8dbd
000000b0: f722 333d 026b 123e 5ccb ca3a cf54 9bbd
000000c0: 2fc2 06be fb86 e6bd 8c12 0b3e 13e7 52be
000000d0: 947a 54bc d43b 1d3e ac20 b63a 80c8 8ebd
000000e0: ff00 85be cf0f e33d 0be7 85be 4c01 27be
000000f0: 7841 443e 0e83 0c3e 91b7 0d3d 8017 2b3e
00000100: 1304 5d3d 111c 2b3c 64cb 02be 5165 0c3e
00000110: 914a d03d e55f 6a3e e399 a33d 624b 333d
00000120: 1f42 063e c95b 303e 9164 02be b1c9 2e3e
00000130: 3d2e 4abd 4415 82bd d257 61be 93d9 28bc
00000140: a001 96be c401 9b3d 8b51 92be 1f20 e63d
00000150: e7b6 913c cb50 203e 5089 03be d954 1e3e
00000160: 131c 523e 009e 87bd 431f 47bd 52c7 92be
00000170: ab78 083e 75e3 bb3c a75e 9bbe 47e2 71bc
00000180: 719b f4bd 9b02 4fbe c1e6 e03e 0e36 ef3d
00000190: 035a 39be c947 44bd f1ec 913d 89ee dcbe
000001a0: 21f6 923e 0a08 c83d ffa1 0b3e 7bf3 423e
000001b0: e9c2 17be a469 22be 070a ee3c a592 463c
000001c0: ef13 83bd 69d6 383e 8b8a 02bd 23b2 2d3e
000001d0: cf65 74bd ab86 2cbe 619b 63ba a6dd 1bbb
000001e0: 791c 8f3e 6def 833d d22e da3d 926c 123e
000001f0: 28c7 13bd 8397 7c3d 0e3a 6cbd 505e 4b3d

critic.weight f4 [1, 64]
-2.2443664 -2.7612133 -1.0381689 1.0880653 1.2289667 -2.5371935 1.255102 1.1551212
1.1977229 1.2041589 1.4231665 -2.6605206 -2.396345 1.1276119 1.1450742 1.2094395
1.2316447 -2.4595666 1.2668588 1.2175647 1.2129531 1.2375472 -2.1289463 1.3235492
1.3310359 1.2180092 -2.1297498 1.3652732 -0.8381625 -2.1594055 1.3342136 1.3182983
1.2464117 1.4062467 1.2847757 1.2643806 1.2014279 1.3595852 1.1714565 1.2904412
1.2172347 1.2493043 1.2619095 1.1349908 1.2442559 -2.3253264 -2.2822928 1.4330336
1.289762 1.0715668 1.4020253 1.1671271 1.1924108 1.154807 1.1642958 1.2274752
1.2936257 -2.3109949 1.1627815 1.1743613 1.2293656 -2.0116425 -2.4433541 1.1424
00000000: b3a3 0fc0 b8b7 30c0 b8e2 84bf b945 8b3f
00000010: c84e 9d3f 6161 22c0 2fa7 a03f 03db 933f
00000020: fc4e 993f e121 9a3f 522a b63f f845 2ac0
00000030: b75d 19c0 9655 903f cb91 923f eace 9a3f
00000040: 89a6 9d3f 8a69 1dc0 6e28 a23f 29d9 9b3f
00000050: 0c42 9b3f f267 9e3f a840 08c0 0f6a a93f
00000060: 625f aa3f bae7 9b3f d24d 08c0 46c1 ae3f
00000070: d191 56bf b333 0ac0 83c7 aa3f 00be a83f
00000080: 6b8a 9f3f e4ff b33f 8873 a43f 39d7 a13f
00000090: 64c8 993f e306 ae3f 49f2 953f 2d2d a53f
000000a0: 59ce 9b3f 34e9 9f3f 4086 a13f 6147 913f
000000b0: c743 9f3f 26d2 14c0 1611 12c0 a56d b73f
000000c0: ec16 a53f 1a29 893f 9175 b33f 6c64 953f
000000d0: eba0 983f b7d0 933f a507 953f e81d 9d3f
000000e0: 8795 a53f 57e7 13c0 06d6 943f 7951 963f
000000f0: da5b 9d3f c0be 00c0 ea5f 1cc0 2a3a 923f

shared.0.bias f4 [64]
-0.77927095 0.00733879 -1.309372 1.6214889 1.4613868 -0.51316094 1.4737836 1.189757
1.7073861 1.5208154 1.2865698 -0.51379496 -0.770413 1.7405106 1.7392423 1.64777
1.383041 -0.97350717 1.3553537 1.587249 1.5696295 1.5572819 -0.6644078 1.3784671
1.4800289 1.6833402 -0.8888144 1.2714576 -1.1138719 -0.93281955 1.3489428 1.4200016
1.3828429 1.2654753 1.1459022 1.4681826 1.6526561 1.3941671 1.632626 1.3200859
1.4051574 1.4042263 1.45679 1.6446861 1.4975953 -0.50606775 -0.5070453 1.3039175
1.3205795 1.4029614 1.122328 1.3261727 1.5911958 1.6885191 1.575096 1.6819677
1.3855102 -0.96172935 1.4565083 1.4348152 1.2322001 -0.82216746 -0.28309885 1.8092906
00000000: 4d7e 47bf 3c7a f03b 8099 a7bf f38c cf3f
00000010: b90e bb3f 845e 03bf f1a4 bc3f f549 983f
00000020: a18b da3f 14aa c23f 52ae a43f 1188 03bf
00000030: c939 45bf 0dc9 de3f 7e9f de3f 21ea d23f
00000040: 7d07 b13f c437 79bf 3b7c ad3f fa2a cb3f
00000050: 9fe9 c83f 0355 c73f a116 2abf 9c71 b03f
00000060: 9671 bd3f b177 d73f 5789 63bf 1fbf a23f
00000070: 5b93 8ebf 43cd 6ebf 28aa ac3f 9dc2 b53f
00000080: ff00 b13f 18fb a13f ecac 923f 68ed bb3f
00000090: 3c8a d33f 1174 b23f e4f9 d03f 93f8 a83f
000000a0: 33dc b33f b0bd b33f 1878 ba3f 1385 d23f
000000b0: 34b1 bf3f a88d 01bf b9cd 01bf c5e6 a63f
000000c0: c008 a93f 3d94 b33f 72a8 8f3f 07c0 a93f
000000d0: 4eac cb3f 6521 d83f bf9c c93f b84a d73f
000000e0: 6658 b13f e533 76bf dd6e ba3f 06a8 b73f
000000f0: bcb8 9d3f 9179 52bf 55f2 90be d696 e73f

shared.0.weight f4 [64, 4]
-0.9124904 -1.4081826 -2.516645 -0.3834137 1.936101 -0.8761181 2.737066 1.1131928
0.37198517 0.013398155 -0.36320806 0.22092308 0.15333125 -0.41733414 -0.06183101 0.56051946
0.1565782 -0.5721484 0.6960281 0.33404592 0.77142644 1.7121674 2.6944616 0.37366766
0.06490518 -0.46785954 -0.04475273 0.6431628 -0.19405822 0.4280883 -0.14825605 -0.20316294
-0.38041174 0.26464558 -0.28929105 0.43657926 0.078586556 0.30782565 0.19086294 0.14609164
-0.39851385 0.10952754 0.40243092 -0.6921377 -1.9571873 0.6767185 -2.581958 -0.7177459
1.9026881 0.5852736 1.275213 0.41214788 0.128712 0.3127105 -0.5023229 -0.12818392
0.26638496 -0.54391927 0.070778385 -0.34333193 -0.33775192 -0.07630311 -0.4633503 -0.20661849
-0.34566566 -0.21374358 -0.6770639 -0.61127037 1.012639 1.6840742 2.017152 0.4212986
-0.29400173 -0.29415223 -0.38807806 -0.4890722 -0.4098879 -0.24821989 0.32072654 -0.07840072
0.21925512 -0.63533336 -0.25732026 0.26803124 -0.30521065 -0.30662072 0.6246494 0.27099812
-1.636678 -0.53388697 -2.863406 -1.2588342 -0.18079759 -0.41139466 0.29739302 0.6660495
-0.57133025 0.14491475 0.2428272 0.36417577 -0.49841356 -0.20042579 -0.5422766 -0.20520063
-1.5588584 -0.7645558 -2.3829088 -1.0546378 -0.38324574 0.25223452 -0.76636523 -0.7532068
0.078742586 0.06607703 0.42080092 0.38702458 -1.2314798 -1.0966057 -1.6451304 -0.44655132
0.28720203 -0.6256908 -0.3197639 -0.10513258 -0.0021590518 -0.5978453 -0.08069111 0.19822857
-0.37307793 0.2777552 -0.59384155 -0.87764 -0.052859318 -0.07258957 0.17490812 -0.5969899
-0.09365105 0.06934031 0.7826955 0.5772725 0.17973338 -0.55887604 -0.37668929 0.74765635
-0.10486403 -0.07572617 -0.47508955 -0.6564587 -0.20704842 -0.07212415 -0.11037846 0.01170502
-0.5747345 0.47826663 0.51104206 0.16047922 0.24804819 -0.18510762 -0.38987988 -0.8924978
-0.46725178 0.0776229 0.2806595 0.60847867 0.15363646 -0.49151802 0.50562364 0.4279918
-0.13326968 -0.5349697 0.07121652 0.45478064 0.3025938 -0.42664075 0.6086146 0.50611836
-0.11014026 -0.099687904 -0.2237385 -0.32950217 -0.4509775 -1.9221771 -2.2169955 -0.78541005
-0.5329538 -1.8387489 -2.1562448 -0.80835676 -0.467525 -0.027444623 -0.2031387 0.0054102456
0.20606661 -0.5976306 0.013511272 0.6539437 -0.09447307 0.30313072 0.48741168 0.013896281
-0.036759835 0.05832333 0.43617132 -1.0666975 -0.13262708 0.25509676 0.6093857 0.017281463
0.28434944 -0.23856238 0.12740691 -0.02644203 0.15366991 0.125692 0.09885667 -0.501656
0.21046287 -0.35854834 0.24762021 0.29910612 0.2601391 -0.037957765 -0.22037761 0.33690286
0.08005891 0.26379117 0.23328456 0.5357571 -1.8228406 -0.1195919 -2.775727 -0.9467221
0.13818553 0.2671666 0.638185 0.3972922 -0.2854814 -0.22842507 0.056034263 0.30525735
-0.2093121 0.21040523 0.08189459 -0.8538481 -1.1106818 -1.3207837 -2.3776603 -0.9119221
2.204487 -0.31611776 1.5784699 0.42573658 0.04156379 -0.19857161 0.07968955 -0.21848501
00000000: f998 69bf 543f b4bf b610 21c0 cd4e c4be
00000010: 28d2 f73f 4749 60bf 172c 2f40 1a7d 8e3f
00000020: d774 be3e ef83 5b3c 68f6 b9be a939 623e
00000030: de02 1d3e d2ac d5be 8342 7dbd 347e 0f3f
00000040: 0956 203e 5178 12bf e62e 323f 1108 ab3e
00000050: 347c 453f 4d28 db3f 0f72 2c40 5e51 bf3e
00000060: 02ed 843d 498b efbe a34e 37bd 51a6 243f
00000070: 33b7 46be 642e db3e 6fd0 17be f209 50be
00000080: 54c5 c2be a07f 873e f51d 94be 5187 df3e
00000090: fdf1 a03d 539b 9d3e 9371 433e 0c99 153e
000000a0: 020a ccbe fa4f e03d 6d0b ce3e f02f 31bf
000000b0: 1d85 fabf 6c3d 2d3f cd3e 25c0 32be 37bf
000000c0: 498b f33f 7ed4 153f 2e3a a33f 0c05 d33e
000000d0: 14cd 033e 971b a03e 3c98 00bf a542 03be
000000e0: 9c63 883e 4b3e 0bbf 42f4 903d 34c9 afbe
000000f0: d2ed acbe ce44 9cbd 403c edbe cc93 53be
00000100: 17fb b0be 99df 5abe 0f54 2dbf 377c 1cbf
00000110: 289e 813f be8f d73f 0519 0140 73b4 d73e
00000120: 6587 96be 1f9b 96be 2bb2 c6be ac67 fabe
00000130: d4dc d1be 5b2d 7ebe 4536 a43e 8f90 a0bd
00000140: 6a84 603e 35a5 22bf 7bbf 83be 643b 893e
00000150: 9244 9cbe 64fd 9cbe 06e9 1f3f 44c0 8a3e
00000160: aa7e d1bf d1ac 08bf 0b42 37c0 7b21 a1bf
00000170: 0123 39be 52a2 d2be e643 983e 3882 2a3f
00000180: b342 12bf 8864 143e b2a7 783e 3f75 ba3e
00000190: 1030 ffbe 6b3c 4dbe a4d2 0abf 1d20 52be
000001a0: ac88 c7bf eeb9 43bf 9481 18c0 5ffe 86bf
000001b0: c938 c4be e224 813e 8330 44bf 29d2 40bf
000001c0: cb43 a13d 6553 873d 3873 d73e 1628 c63e
000001d0: 21a1 9dbf 935d 8cbf a293 d2bf 60a2 e4be
000001e0: 250c 933e 462d 20bf 18b8 a3be c04f d7bd
000001f0: e17e 0dbb 640c 19bf 6141 a5bd 6efc 4a3e
00000200: 1204 bfbe ee35 8e3e 0006 18bf 04ad 60bf
00000210: 0383 58bd d7a9 94bd 1d1b 333e 55d4 18bf
00000220: 1fcc bfbd 4b02 8e3d bb5e 483f 21c8 133f
00000230: 070c 383e 8012 0fbf 6bdd c0be 6866 3f3f
00000240: f4c2 d6bd 5216 9bbd f03e f3be ad0d 28bf
00000250: 8004 54be d4b5 93bd 1a0e e2bd 6ac6 3f3c
00000260: cd21 13bf 5ddf f43e a7d3 023f aa54 243e
00000270: 5800 7e3e da8c 3dbe 569e c7be bc7a 64bf
00000280: a03b efbe c1f8 9e3d 9ab2 8f3e 42c5 1b3f
00000290: e052 1d3e 40a8 fbbe 8d70 013f be21 db3e
000002a0: d977 08be c6f3 08bf f8d9 913d 02d9 e83e
000002b0: 93ed 9a3e a870 dabe 2bce 1b3f f990 013f
000002c0: 3791 e1bd 2c29 ccbd b51b 65be 82b4 a8be
000002d0: 86e6 e6be e609 f6bf 41e3 0dc0 a210 49bf
000002e0: a96f 08bf 205c ebbf eaff 09c0 78f0 4ebf
000002f0: 705f efbe 8cd3 e0bc 9703 50be 6e48 b13b
00000300: 2003 533e 52fe 18bf 625e 5d3c db68 273f
00000310: 197b c1bd f333 9b3e 068e f93e 3aad 633c
00000320: 7b91 16bd 72e4 6e3d d951 df3e 8b89 88bf
00000330: 65cf 07be 0b9c 823e b400 1c3f db91 8d3c
00000340: 4096 913e b249 74be f576 023e f59c d8bc
00000350: a55b 1d3e 67b5 003e 5e75 ca3d 876c 00bf
00000360: 9483 573e a693 b7be 2790 7d3e 7024 993e
00000370: f430 853e 9a79 1bbd abaa 61be 887e ac3e
00000380: edf5 a33d a30f 873e 26e2 6e3e 6127 093f
00000390: d752 e9bf 99ec f4bd 83a5 31c0 615c 72bf
000003a0: 8280 0d3e 10ca 883e 1860 233f e269 cb3e
000003b0: 9e2a 92be 43e8 69be 2f84 653d b14a 9c3e
000003c0: e955 56be 7874 573e 5ab8 a73d ca95 5abf
000003d0: d22a 8ebf 710f a9bf 962b 18c0 ba73 69bf
000003e0: 5116 0d40 30da a1be 4d0b ca3f 25fa d93e
000003f0: cb3e 2a3d 5b56 4bbe 4634 a33d 89ba 5fbe
