fast_ppo_cartpole.safetensors (safetensors, 19276 bytes, 7 tensors)

actor.bias f4 [2]
000000 3d 18 9b 3d 99 aa b8 3d
       0.075729825 0.09016914

actor.weight f4 [2, 64]
000000 7e bc 94 bd d7 f3 04 be 19 3e 51 3d 9c a4 8a 3d
       -0.072625145 -0.12983643 0.05108461 0.06769678
000010 0b b9 f1 bd 7e 34 24 be ea 03 5e bc 27 a1 79 bc
       -0.11802872 -0.16035649 -0.013550738 -0.015236176
000020 40 5e 09 be ad a9 04 3d 66 1f 2f 3e c7 e3 28 3e
       -0.1341486 0.032388378 0.17101821 0.1649314
000030 6f c3 0c 3e 4f 05 5b 3a 66 52 9f 3d 78 8d 9d 3e
       0.13746427 0.0008354978 0.07779388 0.30771995
000040 8e 28 ba 3d 25 10 ad bc a8 7b a3 bd 19 46 b2 3c
       0.090897664 -0.021125862 -0.0798257 0.02176194
000050 a6 60 79 be 8d cb d9 bc ce 45 b7 3d 06 23 c7 be
       -0.24353275 -0.026586318 0.08948861 -0.38893908
000060 30 75 9f bd 5e 45 42 bd f9 51 f0 bd a2 27 57 3c
       -0.077860236 -0.047429435 -0.11734385 0.013132008
000070 cf 16 56 bd a2 c4 6e 3d ae 5f f0 3d fc fa b3 bd
       -0.052267846 0.058292992 0.117369995 -0.08788106
000080 1b c7 c9 3d 36 9d ee 3c 80 89 01 3e 52 74 55 3d
       0.098524295 0.029127698 0.12650108 0.052112885
000090 d2 ad f7 3c b0 9b fe bd ee b0 ac bd c0 f9 37 3d
       0.030234251 -0.12432039 -0.08432184 0.044915915
0000a0 f6 c9 1c 3e a2 53 c7 3d 25 9e 8c 3d 6e 2c 86 3d
       0.15311417 0.097327486 0.06866101 0.06551443
0000b0 75 6d 5f 3d ef 04 15 be ca c4 60 3d a3 05 27 3e
       0.054547746 -0.14552663 0.054875173 0.16310744
0000c0 a1 ac 00 be 7c e4 69 be 53 7f ee bd 72 00 09 3e
       -0.12565853 -0.22841066 -0.11645379 0.13379076
0000d0 6c e6 d6 3d 8b 91 51 3d b2 42 20 3d dd 07 01 be
       0.10493168 0.05116419 0.039126106 -0.12600656
0000e0 07 88 a8 3d 18 ca 40 bc e3 8f 7a 3e 12 0e 5d bd
       0.0822907 -0.011766933 0.24468951 -0.053968497
0000f0 6c 5e 37 be 73 96 2c bd 9b 68 65 3d 77 8b 8f 3d
       -0.17907113 -0.042135667 0.056007963 0.07009023
000100 cb c1 bd bd 56 57 94 3d 13 4f e8 3c a0 a2 d1 bd
       -0.09265479 0.072432205 0.028358018 -0.102360964
000110 85 bd 04 3e 07 b1 48 3e e8 82 2f 3d 86 5a b8 bd
       0.12962921 0.1959878 0.04284945 -0.09001641
000120 76 ac cb 3d 6b 6f c2 bd 59 95 90 be 59 e1 b9 bd
       0.09945004 -0.094939075 -0.28238943 -0.09076185
000130 0e 60 36 be 5c d9 98 3b 3f 73 de bd 38 f8 f6 be
       -0.1781008 0.004664583 -0.10861825 -0.4823625
000140 28 55 a9 bb a4 8a e1 bd d7 53 df bd 24 b0 a9 bd
       -0.005167622 -0.11012772 -0.10904663 -0.08285549
000150 e6 4e 34 3e a3 86 59 3d 66 9a fb bc cd a3 89 3e
       0.17608222 0.053106915 -0.030713271 0.26882783
000160 62 7e 29 bd ac c2 25 3d c0 c5 5e 3c f2 a2 e8 bc
       -0.041380294 0.040468857 0.013596952 -0.02839801
000170 b3 f6 95 bd d5 a5 82 bd 5c b3 e3 3c 65 93 69 3d
       -0.07322445 -0.06379286 0.027795486 0.057025332
000180 c8 1b d9 bd 03 2e 1b 3d 15 63 9a bd 58 06 94 bd
       -0.10601002 0.037885677 -0.0753843 -0.072277725
000190 5c 78 3a bd 02 08 0c 3e a4 55 85 bd 50 98 75 bd
       -0.04552494 0.1367493 -0.06510475 -0.05995971
0001a0 e4 03 29 3c eb 32 7d 3d 75 a1 d0 3b 1d 32 08 3e
       0.010315869 0.061816137 0.0063669034 0.13300367
0001b0 9b 0d 19 bd 17 06 1d 3e 69 e3 5c bd c2 3b 27 be
       -0.03736649 0.15334354 -0.053927813 -0.1633139
0001c0 5f ec b2 bd c8 e5 46 3e 6c f6 50 bd 25 70 6a 3d
       -0.087364905 0.19423592 -0.051016256 0.057235856
0001d0 88 8f 73 bd 4d a2 1a 3e f9 a4 23 bd 22 16 2c 3d
       -0.059463054 0.15100975 -0.039952252 0.042013295
0001e0 9e 72 8e 3d 94 e8 ae 3d 4b e4 82 be 4c 26 6e 3e
       0.06955455 0.085404545 -0.255648 0.23256797
0001f0 5a 7d ae 3e 8c 2b 2d bb f7 8c 2a bd d2 40 88 bc
       0.3408001 -0.002642366 -0.04163834 -0.016632471

critic.weight f4 [1, 64]
000000 e3 7c db 3e ca 2f d8 be 2b 46 fa 3e 12 7a ef 3e
       0.42868719 -0.4222396 0.4888166 0.4677282
000010 f7 4f 97 bf af 25 dd 3e 72 3e ad bf ce 93 df 3e
       -1.1821278 0.43192813 -1.3534682 0.43667454
000020 8e 9a 4c bf 38 e4 fc 3e 4d 19 66 bf b9 f0 87 bf
       -0.7992333 0.49392867 -0.89882356 -1.0620338
000030 b8 2c d8 3e 37 3f db be 51 ff cc be b6 dc 5c bf
       0.42221618 -0.42821667 -0.4003854 -0.8627428
000040 2d 3b ec 3e 21 e6 c3 3e 97 20 d9 3e 6b 8d c9 3e
       0.46138898 0.38261512 0.42407677 0.39365706
000050 e3 0a 59 bf c2 71 f9 3e 1b d7 cc 3e ed 11 38 bf
       -0.84782237 0.48719603 0.40007862 -0.7190235
000060 ce d3 c7 be 84 cf e1 be f3 74 d4 be db ae e3 3e
       -0.39028782 -0.44103634 -0.41495475 0.44469342
000070 84 51 e3 3e fc 7e ae bf dd b1 03 3f 62 f3 f1 3e
       0.4439813 -1.3632503 0.5144327 0.47256
000080 1d 66 c3 3e 24 a5 fa 3e 9b 8e 84 bf f5 c8 f9 3e
       0.38163844 0.48954117 -1.035602 0.4878613
000090 29 5a c8 be c3 fc a9 bf 04 51 d3 be 4b 5c eb be
       -0.39131287 -1.3280262 -0.41272748 -0.4596885
0000a0 81 04 2b bf b4 a1 e4 be fc 0c d2 3e bb a6 d6 3e
       -0.6680375 -0.4465462 0.4102553 0.4192408
0000b0 d7 3b e9 3e 45 aa fa 3e f6 32 c6 3e 7e 89 b8 be
       0.45553467 0.4895803 0.38710755 -0.36042398
0000c0 22 b8 c7 3e e2 27 e0 3e c7 0e dc 3e 89 ea 89 bf
       0.3900767 0.43780428 0.42980024 -1.07747
0000d0 47 91 b2 be 7e 58 cb 3e 79 ac 83 bf fc 48 da 3e
       -0.34876463 0.39715952 -1.028701 0.42633808
0000e0 cd c2 e7 3e f5 71 dd 3e 14 75 33 be a1 da db 3e
       0.4526581 0.43251005 -0.1752513 0.42940238
0000f0 57 72 40 bf df 28 f8 3e c0 d6 ee 3e 3d 49 ba bf
       -0.7517447 0.48468682 0.46648216 -1.45536

shared.0.bias f4 [64]
000000 7d f0 2c bf 45 48 b9 3d 03 cd aa 3e 89 c0 0c 3d
       -0.67554456 0.090469874 0.33359537 0.034363303
000010 13 d3 ed 3e 6e 07 27 3f 59 9b 1f 3f b2 8c 40 3f
       0.464501 0.6524571 0.62346417 0.75214684
000020 d8 01 2d be f7 11 31 3f 35 e3 ea 3e af 59 3d be
       -0.16895235 0.6916804 0.4587647 -0.18491243
000030 20 c6 1f bd 57 14 6d 3e 6a 67 d5 3e 79 66 0b 3f
       -0.039007306 0.2315229 0.4168046 0.54453236
000040 18 ff 96 be 01 1e 98 3e 8c 24 e2 3e 45 48 cb 3d
       -0.29491496 0.2971039 0.44168508 0.09925894
000050 c5 98 45 3f d0 21 b5 be a0 fc d1 3e 5a 40 24 3f
       0.7718623 -0.3537736 0.4101305 0.6416069
000060 d1 b8 8d 3d a7 d3 38 bf 8b f9 da be 77 d3 9e 3e
       0.069200166 -0.72197956 -0.4276851 0.3102071
000070 a4 9d 44 3f ef ca ee 3e 18 9d d8 bd b9 00 d8 3e
       0.7680304 0.466392 -0.10576838 0.4218805
000080 87 ae 3f 3f 59 84 86 be 4c 1b 3d bc 02 ef ad 3e
       0.7487568 -0.26272848 -0.011542153 0.3397141
000090 d9 e5 91 be dd 64 25 bf 90 95 40 3f 35 d7 30 3f
       -0.28495672 -0.6460703 0.75228214 0.6907838
0000a0 2e 5c 6b bf 5c b1 33 3f 4c e3 62 3e c4 e4 e7 3e
       -0.9193753 0.70192504 0.2215702 0.45291722
0000b0 ff ce d3 be ce 73 4d bd c6 fb ef 3e 66 c6 08 3f
       -0.41368863 -0.050159268 0.46871775 0.5342773
0000c0 ed 8d 06 3f 8e e5 20 3f df a5 0d 3f 8c d9 99 3e
       0.5256031 0.6285027 0.55331224 0.30048788
0000d0 e9 dd 08 bf 98 fd c7 3e 4d ed 37 3f 42 9a a3 3e
       -0.5346361 0.39060664 0.7184647 0.31953627
0000e0 a3 b6 22 bf 7e 99 10 be b0 59 f9 3e 6b 4d 8c bd
       -0.6355993 -0.14121053 0.4870124 -0.06850704
0000f0 53 ad 46 3f fd ea 4e 3f 40 df 54 be 0d 77 c6 be
       0.7760822 0.80827314 -0.20788288 -0.38762704

shared.0.weight f4 [64, 4]
000000 56 1e 80 be c4 e0 08 bf 0a 53 8f be 9d 40 da be
       -0.25023144 -0.53467965 -0.2799304 -0.4262742
000010 fd 83 25 3f c0 d8 01 bf 39 9f e8 3e ae 0a 2c 3e
       0.64654523 -0.5072136 0.45433977 0.16800949
000020 11 19 7c 3e 85 d7 91 be 21 0b 0e 3e 71 a4 b6 be
       0.24618937 -0.2848474 0.13871433 -0.35672334
000030 95 0c 76 3d fe e3 21 3e 51 58 0d 40 29 00 07 3f
       0.060070593 0.15809628 2.2085154 0.5273462
000040 6a 1e 50 be 8b 47 fa bd 02 7d d3 3b 2d 67 97 be
       -0.20324102 -0.12220677 0.006454111 -0.29570904
000050 9d 6d 30 3e 7c 28 35 3e e5 28 16 bf 1e ce cf 3e
       0.17229314 0.17691225 -0.5865615 0.40586942
000060 bc 73 7c 3e 59 d9 03 3e f9 e0 ce 3d 07 47 9b 3e
       0.24653524 0.1287588 0.10101504 0.30327627
000070 cf bd b9 3c 72 dd 98 3e f9 4e 14 3f 82 6e c4 3e
       0.022673516 0.2985645 0.57933 0.3836556
000080 85 76 29 3f 75 b6 70 be 5c 82 b7 3f f7 b3 4f 3d
       0.6619647 -0.23507102 1.4336658 0.050708737
000090 22 eb 91 3e 51 03 26 be 49 82 f9 3d ac e3 2e bd
       0.28499705 -0.16212203 0.12183053 -0.042697594
0000a0 9d b4 55 3d 22 f0 1b be 3e 5f 95 3e 9d ec 18 3e
       0.0521742 -0.15228322 0.29174227 0.14934011
0000b0 63 75 39 be 13 00 83 be 4f e3 12 c0 87 17 13 bf
       -0.18111186 -0.25585994 -2.2951238 -0.57457775
0000c0 13 e7 01 3f df 27 0f bd 64 cd 9e bf 30 f6 c4 be
       0.50743216 -0.034950133 -1.240643 -0.38469076
0000d0 6a b1 8d 3d 7d af 52 3e f5 bb ae bd 42 9d 33 bf
       0.06918605 0.20574756 -0.08531944 -0.7016183
0000e0 0f 3b 9f bb 1a 16 c9 be 6b 6f e9 be 88 77 8b be
       -0.0048593353 -0.39274675 -0.45592818 -0.27239633
0000f0 ad 4a 55 3d 89 a1 9a bd c2 10 1b bb 9f 88 b0 3e
       0.05207317 -0.07550342 -0.0023661111 0.34479234
000100 cf db 5e be 0f 0b 8e be a1 78 f0 3e 8a 9a 26 3f
       -0.21763538 -0.27742812 0.46967033 0.6507956
000110 35 1d 7b be 10 76 a0 be 64 36 22 3e 4d b9 b7 be
       -0.2452286 -0.31340075 0.15841061 -0.3588356
000120 fe fc b4 3e c5 19 d9 be 64 a4 af be 7a fb f1 be
       0.35349268 -0.42402473 -0.34305108 -0.47262174
000130 a2 de f8 be 1c 8f 8b 3e 9e fa 80 be e5 24 c0 be
       -0.48607355 0.2725762 -0.25191206 -0.37528148
000140 74 38 90 bc a6 52 8b 3e 3d 20 d3 3e 0b 5f ca 3e
       -0.017605044 0.27211493 0.41235533 0.39525637
000150 f8 af 41 be b8 40 e8 be bd 6b bd bf 42 11 ed be
       -0.18914783 -0.45361876 -1.4798504 -0.4630223
000160 19 27 87 be 0f 36 dc be ea 42 0c be e9 db a7 be
       -0.26397017 -0.43009993 -0.136974 -0.32784966
000170 89 d8 c1 be 84 07 c6 3e a5 b5 03 bf 13 7b ab 3d
       -0.37860516 0.3867761 -0.5144904 0.08373084
000180 f7 cf 9d 3e 81 20 37 3f e6 f5 83 3f 52 19 03 3f
       0.30822727 0.7153397 1.0309417 0.5121051
000190 30 2c c3 be 86 d3 62 be e3 7a 81 bf 0c 3b 2b bd
       -0.3811965 -0.22151002 -1.0115627 -0.04180436
0001a0 ee bb 16 bf fc 50 e0 ba 64 c3 a7 bd e2 54 1d 3f
       -0.5888051 -0.0017113979 -0.08191565 0.61457646
0001b0 2a d3 b1 be 7b 0a 97 3e 8c 36 38 3f 1e 86 fc 3d
       -0.34731418 0.29500183 0.7195823 0.12330268
0001c0 a1 a1 49 be cc f7 74 be 29 d8 3f 3c ad c1 60 3e
       -0.19690563 -0.23922652 0.011709251 0.21948881
0001d0 ba 68 82 ba 17 c5 88 3e 33 15 2a 3f eb b1 b5 bc
       -0.0009949424 0.26712868 0.664386 -0.022179564
0001e0 98 f6 d8 be ff 0f 85 3e 95 5a fc bf 6e f7 e6 bd
       -0.42375636 0.25988767 -1.9715143 -0.11277662
0001f0 40 28 4a 3e 38 17 82 bd bf fb dd bd fb 74 67 3e
       0.19741917 -0.06352085 -0.108390324 0.22603218
000200 13 e1 81 be 1a f7 97 be a0 78 a9 be 32 9b 88 be
       -0.2536703 -0.2968071 -0.33099842 -0.26680905
000210 19 e2 34 bf 74 04 1d bd f3 12 71 bf c0 14 f7 be
       -0.706575 -0.038334325 -0.9416954 -0.48258018
000220 d9 66 1c 3f 1f d3 2c bf ea 9f 53 be 72 9c e5 be
       0.61094433 -0.67509645 -0.20666471 -0.4484592
000230 6c f9 78 be d5 4a 9c be 39 4c c3 3e 2c 9e 8c be
       -0.24313897 -0.30525842 0.3814409 -0.27464426
000240 00 f7 11 3f e0 2e 2f 3f 00 fb f1 be 2c 46 cf bd
       0.5701752 0.684309 -0.4726181 -0.10120806
000250 8a 39 37 be fc 5e 10 3f 69 30 79 be 50 94 cd 3d
       -0.17893043 0.56394935 -0.24334873 0.10038054
000260 96 96 15 bd 7a 82 8f 3e 1f 82 c0 3e b9 a2 a5 be
       -0.036520563 0.28029233 0.37599275 -0.3235071
000270 4e 20 b7 3d 44 e4 94 3e 8f 75 f1 be bf b6 94 3e
       0.089417085 0.29080403 -0.47160003 0.29045674
000280 1c 4b e2 be 68 38 d1 be 73 f9 a0 bf d6 53 51 be
       -0.4419793 -0.40863347 -1.2576126 -0.20442137
000290 37 53 e2 3e e5 fd ee be b9 09 da 3e ea 7d 92 be
       0.44204113 -0.4667808 0.42585543 -0.2861169
0002a0 d7 9e 26 3d fd ec b7 3d 0a aa cf 3e 1c e8 2a bf
       0.040678825 0.08980749 0.40559417 -0.6676042
0002b0 0f e0 88 be a3 34 a8 3e d4 09 c9 3e 43 01 48 be
       -0.26733443 0.3285266 0.3926531 -0.19531731
0002c0 06 be 02 3f 7e 35 2a 3c 0b 19 6f 3e ee 70 ae bd
       0.510712 0.01038873 0.23349397 -0.085176334
0002d0 3c 93 26 be 32 39 18 bf c8 18 bb be f5 6a a4 3e
       -0.16267103 -0.59462273 -0.36542344 0.32112852
0002e0 21 7d 98 bd 27 17 0e 3e 8f cc 7c be 4d d2 6e bd
       -0.074457414 0.1387602 -0.24687408 -0.058306027
0002f0 b1 f7 a7 3d bb 80 37 3e 3b d2 f7 3e 90 22 b7 3e
       0.0820154 0.179202 0.4840258 0.35768557
000300 4d 0d 06 3e d4 5a 98 be 8d 91 ec bd af 09 f7 be
       0.13091011 -0.29756796 -0.11551199 -0.48249575
000310 cf 76 d6 3e af 50 bf be bb bf a4 be ef 64 b0 be
       0.4188752 -0.37366244 -0.3217753 -0.34452006
000320 3d dc af 3d 06 4a 2e 3e 91 32 01 be ff 3f 3f be
       0.08586929 0.17020425 -0.12616946 -0.18676756
000330 1f 9a 19 3f 2d ba 60 be 57 c8 8d 3e 71 ec 46 bd
       0.60000795 -0.2194602 0.2769191 -0.04856533
000340 5f b3 f1 3e b1 99 6e 3e 3c bc 38 3f 6d 0d 58 be
       0.47207162 0.23300816 0.7216222 -0.21098872
000350 c1 94 c3 3d 8c 56 76 be 5c 1c ca bd c1 42 0c be
       0.09549857 -0.24056453 -0.0986869 -0.1369734
000360 d7 43 6d 3e 09 9e 18 3e 9d e6 1f be 72 5e f8 3d
       0.2317041 0.14904036 -0.15615316 0.12127389
000370 05 a9 e3 be 59 ea 3e 3e b9 5e 17 3e cb 7b a2 bd
       -0.4446489 0.18644084 0.14782228 -0.07933768
000380 c4 ed 52 3e c7 ed 8e bd d9 ef 87 bd 7b ee 00 bc
       0.20598513 -0.06978946 -0.06637544 -0.007869358
000390 b7 c5 36 bf ae e9 ec be d1 36 41 3f 5e 10 00 3d
       -0.7139544 -0.46272033 0.7547427 0.03126561
0003a0 c2 da 28 3e a8 77 6d bd 86 59 c7 3e 26 41 96 3e
       0.164897 -0.05797544 0.38935488 0.2934658
0003b0 b3 d4 a7 3e 4d b1 da be e8 65 ab 3e 2f eb 46 3e
       0.32779464 -0.42713395 0.33476186 0.19425653
0003c0 e8 03 bd 3e 98 0c 26 be 8f 8a 5b 3e 1e 4d 28 bd
       0.36917043 -0.16215742 0.21439575 -0.04108917
0003d0 38 84 6a be 07 57 75 be c5 3d 2e 3d f7 38 8d bd
       -0.22902 -0.2395898 0.042539377 -0.06895631
0003e0 05 87 5d be 32 09 29 3e ab b8 c9 3e fe 36 0b 3f
       -0.21633537 0.16507414 0.39398703 0.54380786
0003f0 c9 ed 04 3f 62 92 24 3e fd 86 40 3f 4c 03 75 3d
       0.5192533 0.16071466 0.75205976 0.059817597

shared.2.bias f4 [64]
000000 4c 8b 32 3e 6d e6 a3 be 83 be 1b 3e e7 26 04 3e
       0.1743595 -0.32011738 0.15209393 0.12905465
000010 a0 07 e4 bd ce 37 42 3e 8f 17 01 bd 7b 94 b4 3e
       -0.11134267 0.189666 -0.031516608 0.35269532
000020 3b 44 18 bd 26 a4 9f 3e f4 f3 35 bd ea 22 0f be
       -0.037174445 0.31179923 -0.044422105 -0.13978162
000030 d3 14 63 3e 1a a3 99 be 35 b1 8c be 62 09 8c bc
       0.22175913 -0.3000725 -0.27478948 -0.017094318
000040 f2 2e 9f 3e 79 aa a2 3e 32 51 fa 3d 7e 1d 54 3e
       0.31090504 0.31770685 0.12222518 0.20714375
000050 bc 95 2a bd b7 96 5e 3e 97 cc 97 3e 00 dc 5a be
       -0.041646704 0.2173718 0.29648277 -0.21372986
000060 c4 2c 23 3e 2e 70 8c be c2 9e 8e be 21 e0 52 3e
       0.15935045 -0.27429336 -0.27855498 0.20593311
000070 54 5d b8 3e 4f ac 18 be dc 72 71 3e e3 05 58 3e
       0.36008704 -0.1490948 0.23578972 0.21095996
000080 94 2f a8 3e 13 ff 75 3e df 55 65 bd 27 ef 85 3e
       0.328488 0.24023084 -0.055990096 0.2615902
000090 b5 1c 92 be 52 ed ae bd e2 f1 af be ac 00 64 be
       -0.28537527 -0.08541359 -0.3436423 -0.22265881
0000a0 d2 5e f7 bd 1f 0d a1 be 36 13 a2 3e ad db 88 3e
       -0.120786324 -0.31455323 0.31655282 0.267301
0000b0 fa 7b 14 3e ea 7a 1b 3e 22 63 c0 3e c6 46 83 be
       0.14500418 0.15183607 0.37575632 -0.25639933
0000c0 b4 6f 73 3e 61 e5 59 3e 8f 4d 5d 3e 98 92 3a 3b
       0.2377308 0.21278907 0.21611618 0.0028468724
0000d0 57 7d c2 be df 7f 99 3e af 27 d9 bd d4 ac 26 3e
       -0.37986252 0.2998037 -0.10603272 0.16276866
0000e0 40 7b ec 3d 42 5a ad 3e c2 0d d3 bd d7 08 76 3e
       0.115469456 0.33857924 -0.103053585 0.2402681
0000f0 d2 d0 d4 bc 1e 88 88 3e 93 fa 95 3e 17 fd eb bc
       -0.02597848 0.2666635 0.29292735 -0.028807206

shared.2.weight f4 [64, 64]
000000 21 56 4b bf e2 69 83 3c 54 bb ad 3e f0 57 ce be
       -0.794283 0.0160417 0.33931983 -0.40301466
000010 a5 02 70 3e 5e 35 b4 3e 35 81 5d 3e 9e 24 61 3e
       0.23438509 0.35196966 0.2163132 0.21986625
000020 4d 70 13 bf a6 5b cc 3e 40 47 9f 3e c6 11 7a bf
       -0.5759323 0.39913672 0.31109047 -0.9768337
000030 61 1f 74 be ed da 5a 3e ff 21 76 3e ae 9b 9f 3e
       -0.23840095 0.21372576 0.24036406 0.31173462
000040 52 0f 90 be 59 64 9c 3e 17 ad 8d 3e a5 10 eb 3d
       -0.28136688 0.3054531 0.2767112 0.11477784
000050 fa c8 83 3e 99 fc 63 bf 3f 0d 94 3e 25 54 97 3e
       0.2573927 -0.8905731 0.28916356 0.29556385
000060 43 9e de be 9c 2f 6b bf 56 c2 a4 be 7f cb 03 3e
       -0.4348012 -0.9186952 -0.32179517 0.12870596
000070 d6 18 48 3e 96 b6 14 3e 4d eb d8 be 6b d9 ac 3e
       0.19540724 0.14522776 -0.4236702 0.33759627
000080 03 61 16 3e 5c d1 a9 bc c4 d6 0d bf 0a d3 24 3e
       0.14685445 -0.020729713 -0.5540583 0.1609613
000090 01 92 11 bd 19 f4 f0 be 2c 8b a5 3e ac d4 bc 3e
       -0.03553963 -0.47061232 0.32332742 0.36881006
0000a0 75 3e 50 bf d7 6a d1 3e a9 e3 79 3e da 39 72 3e
       -0.813453 0.40901825 0.24403252 0.23654881
0000b0 92 b8 83 be b1 51 80 bc 75 94 bc 3e cc 1a 88 3e
       -0.25726753 -0.015663953 0.36832014 0.26582944
0000c0 18 4c 94 3e bb 20 63 3e 91 44 2e 3e dd 70 dc bc
       0.28964305 0.22180454 0.17018344 -0.026909286
0000d0 b1 6a d8 be 50 20 d5 3e 28 ab 5a 3e 55 25 f6 3d
       -0.422689 0.41626215 0.21354353 0.12018839
0000e0 55 e1 86 be 87 c6 93 be 4e 1c 9f 3e 3a 09 cd bd
       -0.2634379 -0.28862402 0.31076282 -0.100115255
0000f0 5f 2b c1 3e 26 48 2f 3e 9e ad d1 be 9b c0 14 bf
       0.37728402 0.17117366 -0.40952772 -0.5810639
000100 fa 4b 2a 3f e0 9e 0e 3e 6b 59 b1 be 6e 76 a3 3e
       0.6652218 0.13927794 -0.34638533 0.31926292
000110 29 1c 77 be bd 14 4d be 9e c2 4a be 92 9a 57 be
       -0.24131836 -0.20027442 -0.19800803 -0.21055058
000120 ca 2d e9 3e 38 f1 7f be b5 7b b3 bc ef 2f 63 3f
       0.45542747 -0.24994361 -0.021909574 0.88745016
000130 a5 9f cc 3d 33 80 ce bd 56 68 7a be cf f7 60 be
       0.09991387 -0.10083046 -0.24453864 -0.21969531
000140 78 8a 6a 3e 23 3d 61 be d7 4c e2 be 94 5f 4b bd
       0.22904384 -0.21995978 -0.4419925 -0.049651697
000150 e6 37 89 be b5 ec 38 3f 9c 6c 8e be fc cc 87 be
       -0.2680046 0.72236186 -0.27817237 -0.26523578
000160 f4 21 fc 3e 7a c0 5f 3f 57 44 a9 3e 89 1c 01 be
       0.49244654 0.8740307 0.33059952 -0.12608542
000170 b9 82 bc 3b ea 55 b3 be 51 11 e7 3e 86 f2 20 be
       0.005752888 -0.35026485 0.451304 -0.15717515
000180 53 6e 88 be 40 6b 9e 3d cf 15 cb 3e 11 69 a3 be
       -0.2664667 0.077353 0.39665076 -0.31916097
000190 1c 20 01 3e 82 90 0b 3f bc 32 57 be 47 a8 95 be
       0.12609905 0.54517376 -0.21015447 -0.29229948
0001a0 53 dd 55 3f bb 38 80 be 33 ff f6 bd 94 4c 7f be
       0.8354084 -0.25043282 -0.12060394 -0.24931556
0001b0 2e d2 c1 3e 98 94 a6 3d ea 80 93 be 3f 94 38 be
       0.37855667 0.08133811 -0.2880929 -0.18025301
0001c0 d6 3d 37 be 17 aa 8f be d5 d3 91 be bf 64 7c bd
       -0.17894682 -0.28059456 -0.28481928 -0.061619516
0001d0 f3 59 18 3e e1 53 79 be d4 74 20 be 69 02 b2 bd
       0.14878063 -0.24348404 -0.15669566 -0.08691866
0001e0 89 67 ed 3d fa 3d 11 3e 42 b9 5b be e4 94 24 3e
       0.115920134 0.14183798 -0.21457389 0.16072422
0001f0 4c 4b ad be ea b1 49 bd 79 ec fb 3d 88 61 aa 3e
       -0.3384651 -0.049241938 0.12300963 0.33277535
000200 3a b9 43 bf 7b 3f 07 be 44 26 dc 3e e1 62 0c bf
       -0.7645451 -0.1320781 0.42997944 -0.5483838
000210 28 e2 87 3e 52 5b 24 3e ee db 53 3e 33 30 86 3e
       0.2653973 0.16050461 0.20689365 0.26208648
000220 35 3d 10 bf 6a 32 8f 3e 92 f8 a1 3e 5c 06 73 bf
       -0.56343395 0.2796815 0.31634957 -0.9493158
000230 7d fa 4d bc cb f6 a1 3d b0 b9 62 3e 0e 28 9b 3e
       -0.012571928 0.079084 0.22141147 0.30303997
000240 de 28 52 be 51 e0 68 3e e4 fb e9 3e 3d 1f 0a 3e
       -0.20523402 0.2274182 0.4569999 0.13488479
000250 65 f5 b7 3e fa 7b 60 bf 85 8a 4a 3e cc 9a 5c 3e
       0.3592941 -0.87689173 0.19779404 0.21543425
000260 9f 0c fb be 59 ee 38 bf 8c 9c f4 be a9 fe 1a 3e
       -0.49033067 -0.7223869 -0.47775686 0.15136208
000270 27 43 1b 3e 60 b1 80 3e fd 8a d7 be 55 8f b5 3e
       0.15162335 0.25135326 -0.42098227 0.35460916
000280 fa 07 7c 3e 68 3e 2a be f4 e8 b6 be c5 4d 95 3e
       0.24612418 -0.16625369 -0.35724604 0.29160896
000290 1f ee d0 bd d2 c3 b3 be df 4e 64 3e 02 c1 2b 3e
       -0.10201668 -0.35110337 0.22295712 0.16772845
0002a0 b4 69 47 bf 41 2e 8c 3e 00 88 c3 3d d2 81 19 3e
       -0.77895665 0.2737904 0.09547424 0.14990929
0002b0 36 fd b2 be 07 de 98 bd 22 41 5f 3e fa 10 4e 3e
       -0.3495881 -0.07464223 0.2180219 0.20123664
0002c0 3b 1b c5 3e 60 d9 9c 3e 2a be 4c 3e 10 8f 27 3d
       0.38497338 0.30634594 0.19994417 0.04090792
0002d0 34 68 dd be 5f ec 52 3e 65 f0 c8 3e f7 fb 86 3e
       -0.43243563 0.20597981 0.39245906 0.2636411
0002e0 ed 34 a6 be 10 50 95 be 53 92 8a 3e 29 66 85 3d
       -0.32462254 -0.29162645 0.27064762 0.06513626
0002f0 b6 86 b4 3e 36 99 83 3e c6 16 b6 be 6a 5c 04 bf
       0.35259026 0.25702828 -0.3556425 -0.5170351
000300 3a 5b 6b bf 10 1e 36 be bb df d7 3e 0e 84 42 bf
       -0.91936076 -0.17784905 0.4216288 -0.7598275
000310 7d f2 b4 3e 1b 5e b0 3e a4 ea 04 3e 05 98 0e 3e
       0.35341254 0.34446797 0.12980133 0.13925178
000320 93 2e 25 bf a9 87 25 3e 6c ee 74 3d 0b d9 66 bf
       -0.6452419 0.16165031 0.05979769 -0.9017493
000330 37 ac 95 be 67 e8 b5 3d 94 b9 a8 3e 56 e8 37 3e
       -0.29232952 0.08882218 0.32954085 0.17959723
000340 f0 72 c3 be db 84 cf 3e 11 5a b8 3e 93 06 55 ba
       -0.38173628 0.40531048 0.36006215 -0.0008126285
000350 6a fa 18 3e 9f 8e 5e bf 27 6a 91 3e fa eb 61 3e
       0.14939275 -0.8693637 0.284013 0.22062674
000360 b7 68 37 bf 0e 71 5b bf fd 27 b8 be 27 84 00 3e
       -0.7164416 -0.8571938 -0.3596801 0.12550412
000370 71 ae 96 3e 16 7a 5f 3e 38 f3 05 bf b3 55 2f 3e
       0.29429963 0.21823916 -0.5232425 0.17122535
000380 80 5e b7 3e 6d e3 11 be 81 70 03 bf 81 3c 94 3e
       0.35814285 -0.14246912 -0.5134354 0.2895241
000390 73 89 c8 be e0 cc bb be 00 6b 9f 3e 87 5a a2 3e
       -0.39167365 -0.36679745 0.31136322 0.31709692
0003a0 98 a2 7b bf 42 c5 90 3e 8e d6 15 3e 5c e9 1d 3e
       -0.98294973 0.28275496 0.14632627 0.15421051
0003b0 30 14 f5 be 0b ce ef bd 7d 8e be 3e 96 6a 4c 3e
       -0.47866964 -0.117092215 0.37218085 0.19962534
0003c0 72 58 7c 3e 70 dc d1 3e 9c b6 62 3e fb 72 c3 3d
       0.24643114 0.40988493 0.22139972 0.09543415
0003d0 bc 8e 18 bf 0a 28 a7 3e 3a ac 59 3e ca 2a 1a 3e
       -0.59592795 0.32647735 0.21257105 0.15055385
0003e0 e2 10 98 be b1 42 e9 bd 41 29 53 3e a0 fc 00 bd
       -0.2970038 -0.113896735 0.20621206 -0.031490922
0003f0 7f fa 8a 3e b1 46 7e 3e 8f e0 c1 be dd 51 42 bf
       0.27144238 0.24831654 -0.37866637 -0.75906163
