fast_ppo_cartpole.safetensors (safetensors, 19276 bytes, 7 tensors)

actor.bias f4 [2]
00000000: 1d70 3bbc b735 863d
-0.011440304 0.06553214

actor.weight f4 [2, 64]
00000000: 68bb 5abc ac06 06bd d183 8fbd b052 d53b
00000010: 3821 0d3a f687 603d 34d6 81bd 3860 fdbc
00000020: d1e1 65bd 60ad d0bc c7a8 e4bd cc84 d1bc
00000030: 8571 cf3c e4e4 223d 52dd bfbe 4a93 8f3d
00000040: 3bb3 b4be c25c 0abe 5b59 2d3e 829e e5bd
00000050: 0590 a9bc 9ed0 c6bd 9810 b83d 6046 ffbd
00000060: a5f3 283c 01e4 19bc de7a a2bb 41cb 163e
00000070: 141b 49be 0b2a 163e 6f72 a63d 9645 a33e
00000080: 18f3 21bc 7e4d ffbd ba6f 8a3e f8a7 ca3d
00000090: f667 c43c c0a9 3bbd ebe3 5fbc 9a09 bebd
000000a0: b3e3 e6bd b6cf 673d 7564 38bd 1af4 35bd
000000b0: 30dc 873d 4e4e b03d 9fc3 cb3c 14f2 a53d
000000c0: 0326 9ebd bf7e aabc 09ea c1be 06e9 913d
000000d0: 54c8 ffbc 8c43 2dbe 953c ac3d 0c3e ae3d
000000e0: 8134 2b3e 40d1 203e 7af3 f9bd db71 b53d
000000f0: d02e a33d 4dfc c2bc 231b 573c d3cd 013d
00000100: 73b9 eabd a658 01be f67c 0d3c 997f debd
00000110: 8af9 ddbb 83f3 dd3c 9df2 5bbc a30b 2d3e
00000120: 0761 f8bc 5864 9e3d 697d ea3d eb18 ff3d
00000130: 609a 313d e690 4f3d 3c96 c33e 0048 b23c
00000140: 7890 883e 3fb4 6c3d 33f8 2cbd 1953 c0bc
00000150: c4be e33d a964 f23c 84b8 1ebe 092f 433d
00000160: 7169 7a3d 9d92 ddbd 1945 22be 404c b3bc
00000170: 4453 003e 0f64 683d c9e3 80bd 15fb 86be
00000180: eb83 40bd d133 543e 65a7 89be 3e45 e8bd
00000190: 0d1c 273e f512 1e3d 7d39 68bd 90ae a03d
000001a0: bc3c 01be 7f7d 38bd 493b c13d 42f8 39bd
000001b0: b7b7 93bd 75aa 9e3d b682 18be fe1e ddbb
000001c0: da13 163e a326 603c 2d0a 853e f63e e53c
000001d0: b786 eabd 52c7 fb3d e303 a7bc a49a 193e
000001e0: dd71 16be 61d2 31be 5c13 8bbd f3c9 9a3d
000001f0: 3b84 1d3c e4d0 0b3e 51dc dc3d 3ff3 0c3d
-0.013350345 -0.032721207 -0.07007564 0.0065101013 0.0005383673 0.054817162 -0.06339684 -0.03092967
-0.05612356 -0.025473297 -0.11165004 -0.025576018 0.025322685 0.03976907 -0.37473541 0.07010515
-0.35292992 -0.13511947 0.16928618 -0.112118736 -0.020698557 -0.09707759 0.0898754 -0.12464595
0.010311996 -0.009392739 -0.0049584946 0.14725973 -0.19639236 0.14664476 0.08127295 0.31889027
-0.009884618 -0.12465952 0.27038366 0.09895319 0.023975354 -0.045816183 -0.01366518 -0.09279175
-0.11273899 0.056594573 -0.04501768 -0.044422247 0.06633794 0.086086854 0.024873553 0.08102813
-0.07722094 -0.02081239 -0.37873867 0.07124524 -0.031223454 -0.16920298 0.084099926 0.08507928
0.16719247 0.15704823 -0.122046426 0.08859607 0.07967913 -0.023801947 0.0131290285 0.03169043
-0.11461153 -0.12631473 0.00863575 -0.10864181 -0.006774132 0.027093654 -0.013424543 0.1689897
-0.030319704 0.07733983 0.11449701 0.124559246 0.043360114 0.050675295 0.38200557 0.021762848
0.2667272 0.057789084 -0.04222889 -0.023477124 0.1112037 0.029589014 -0.15500075 0.047652278
0.061135713 -0.1081898 -0.15846671 -0.021886945 0.12531763 0.05673605 -0.062934466 -0.26363435
-0.047000807 0.20722891 -0.26885524 -0.11341332 0.16319294 0.038592298 -0.05669545 0.07845795
-0.12620825 -0.045041557 0.09435136 -0.045402773 -0.07212775 0.07747356 -0.14893612 -0.0067480793
0.1465601 0.013681087 0.25984326 0.027984124 -0.11451476 0.12293877 -0.020387596 0.15000397
-0.14691873 -0.1736541 -0.06790802 0.0755805 0.009614046 0.13653904 0.107842095 0.034411665

critic.weight f4 [1, 64]
00000000: f885 bcbe c01d 76bf 2331 d33e 3713 cbbe
00000010: 1348 d63e 4ae7 c03e 689c efbe 75a8 c1bf
00000020: 8f29 cd3e 15b9 e8be ed28 db3e 6cb7 e63e
00000030: 9361 d1be 55f5 babe 878f 82bf 107c 00bf
00000040: 77be 83bf 677b d33e 3047 b53e 3fd6 c03e
00000050: 50b9 f53e 77e3 e5be ea46 ec3e 0882 fd3e
00000060: 1040 ec3e d0c5 e23e 50ad bd3e 2aca d33e
00000070: 1957 eb3e 8de9 013f 1580 78bf 0111 55bf
00000080: 3fc4 c53e 482c cfbf 1e0d 70bf 43db ef3e
00000090: bb86 c4be 2b87 d13e 075a f23e 5777 ed3e
000000a0: 1667 c23e 6953 f8be 9ddc 77bf 25ff cd3e
000000b0: 6741 ddbe fc76 ca3e 242c adbf 280a db3e
000000c0: bd94 cf3e 8fa5 d13e 54bd 67bf c6a0 fa3e
000000d0: 2f5e cd3e 0b9b e6be 5388 b9be 2258 bb3e
000000e0: 2582 023f 6fcc c73e 5332 cfbe 4ad9 c2be
000000f0: 3a33 dcbe e0e5 8abf 2f90 b9bf e975 8bbf
-0.3682096 -0.96139145 0.41248426 -0.39663097 0.41851863 0.3767646 -0.46799016 -1.5129534
0.4007077 -0.45453706 0.4280466 0.45061815 -0.40894756 -0.36515298 -1.0200051 -0.50189304
-1.02925 0.41305086 0.35405874 0.37663457 0.47992945 -0.44900104 0.46147853 0.49513268
0.46142626 0.44291544 0.3704629 0.41365176 0.45964888 0.50746995 -0.9707044 -0.8322907
0.38626286 -1.6185389 -0.93770015 0.4684697 -0.3838404 0.40923437 0.4733431 0.46380112
0.37969273 -0.48501137 -0.96821004 0.40233722 -0.4321396 0.39543903 -1.3529096 0.42781186
0.40543166 0.40946624 -0.90523267 0.48950785 0.4011092 -0.45040163 -0.3623682 0.36590677
0.50979835 0.39023158 -0.40468082 -0.38056403 -0.43007833 -1.0851402 -1.4497126 -1.0895358

shared.0.bias f4 [64]
00000000: a710 53be 31c7 fa3e 25a0 b4be b5dd 4a3f
00000010: 88ff 223f 1f2a 363f 1815 35be b0f1 253f
00000020: a532 133f cdc1 da3e 8394 433f afec bbbb
00000030: 2959 083f c5e8 f9bd 5f26 a7bd bb5c e33e
00000040: 43b9 403e 4974 223f fc34 853d 9206 963e
00000050: 2a28 c73e 457b 483f 4a81 fc3d 88c0 813e
00000060: 5705 383f fe73 02bf a7b5 323f a922 e83e
00000070: 8156 89be a011 b83e 351e 4a3f 1963 33be
00000080: f205 153f 940a 3cbe 6f5e 6dbd 0f36 183f
00000090: f9b8 b33e 2e0e 4b3f 8dc6 813e 9b46 c83e
000000a0: c469 2a3f fc53 c13e 225a d13e 26cb 113f
000000b0: 268b 853e 4127 90be dde8 953e b031 1d3f
000000c0: ea48 8e3d 441f 0e3f 3634 d03c 73cb bd3e
000000d0: 88b7 a43e 0572 4e3f e637 003f 0f62 073f
000000e0: d3a8 0d3c 2cec e13e b511 d53e 6709 043f
000000f0: ccbf 0c3f 4bb1 c3be fe18 6fbf d710 4a3f
-0.20611821 0.48980096 -0.3527843 0.7924455 0.6367116 0.7115802 -0.17683828 0.6482191
0.5749915 0.42725983 0.76398486 -0.005735002 0.5326105 -0.122026004 -0.081616156 0.44406685
0.18820672 0.6345869 0.065042466 0.29301888 0.3889783 0.78313094 0.123293474 0.25342202
0.7188315 -0.5095824 0.6980843 0.45338944 -0.2682381 0.35950947 0.7895234 -0.17518272
0.58212197 -0.1836341 -0.057951387 0.59457487 0.3510206 0.7931851 0.25346795 0.39116368
0.66567636 0.37759387 0.40889078 0.56950605 0.26082724 -0.28154948 0.29279223 0.6140394
0.06947501 0.5551646 0.025415521 0.37069282 0.32171273 0.8064273 0.50085294 0.52884
0.008646208 0.44125497 0.41615072 0.51576847 0.5498016 -0.382212 -0.9339751 0.78931946

shared.0.weight f4 [64, 4]
00000000: d421 3a3e 3d8e e13e 94e0 e73f 49b2 233f
00000010: 236a 6d3e 6f9d 77bc 6a7b bb3e f7fb 3abe
00000020: 92f9 e13e b677 71be 3e5a f83f d1e4 0a3f
00000030: 1868 5fbc 0ba0 71be bdbf 43be 7cc4 4bbe
00000040: 545c 3b3d 4fe2 debe 3fd0 5cbe 60c2 61be
00000050: 9eba 533e 72d4 9a3d 0ce4 42be c619 d23d
00000060: b205 69be 3a3c ac3c f438 ad3f 304b 293f
00000070: 36f6 213e 7686 ae3e fa4f ee3e 5c7b dfbd
00000080: d26e 203e ebfb ed3e 650f 903e df77 37bd
00000090: 882b 583e 3b62 e2be c305 a63e c5d4 c2be
000000a0: 28d8 313d 6443 d3be da66 c13e c258 10be
000000b0: 4156 28bf c8f4 413e e596 143f 5dd5 ca3e
000000c0: 2988 75be bed1 b03e 4b2b 333f 624b 673e
000000d0: ec07 a9be c821 02bf bf42 9cba 238d fa3e
000000e0: 3194 5fbd 14c9 4dbf c64f 15be b93b 39bc
000000f0: 79ed d33c 4588 8dbe d671 2d3f f579 6abe
00000100: d335 3cbe b74b 59bf bbd7 f4be 6c5f b8be
00000110: 7ebc 80be 965e 8c3e 9dc0 cb3d e8bc af3e
00000120: f836 21bf 9d36 4c3d 3072 f8bf ef54 12bf
00000130: 0050 143f 6dc9 123f 26a2 723e a73d 093f
00000140: 0180 0b3c 656b b1be 4b6e b0bc 7c5d 9ebe
00000150: a224 be3e bf50 9f3b 9337 d63d 5c48 e03e
00000160: 8eeb 453d 059f c4bd 2f0b 0abf 72ac 243f
00000170: 66a0 be3d f95a adbe 979f 0cbf 6b4a aa3e
00000180: bd44 1c3e 2ea0 4a3d 0386 68be 3c6d 863d
00000190: 0cb0 d33e a847 ccbe d7ed 64bf 58c9 25bf
000001a0: a0fd ff3d 54f6 9a3d 8657 033f a481 933c
000001b0: 6ae2 9cbd 7ffa fe3d a355 083f b5b9 0b3f
000001c0: 5030 573e a8a3 023f a0ca ed3f fc47 2e3f
000001d0: d33c b13c ffdf 8a3e 3771 0dbc e05d c83e
000001e0: bc06 83be 8c39 b03d eba5 92bd f168 ad3e
000001f0: 7ee7 89be 259b f43e f519 bcbf 1d80 3dbf
00000200: d10e ef3e 35c9 323c fe6a c33e 9e20 963e
00000210: c2ca 11be 3583 4c3f a51e 50bf 5132 7a39
00000220: 8039 3f3f 817c acbe d4d6 99bf 3614 00bf
00000230: 2833 1e3e 93c6 babe 4df4 d83d ea90 82bd
00000240: 5eb8 8b3c 64a6 683e 3c45 80be 952b 1abd
00000250: 7878 80be f609 cbbd 5014 1b3f d1ad bf3d
00000260: 56c8 223f a936 eb3e a954 e23d cb0b 553e
00000270: 85f5 963e f1ff 2b3d 0044 3d3f 1c79 81be
00000280: 19d3 993c 570f 913e 6aa6 ba3d 2546 40bc
00000290: 5c41 1e3d 27a7 d93e f179 25bd 6e3a cb3e
000002a0: d307 15be 606e 12bc 4820 de3d bcd8 d3bd
000002b0: 33e9 11be 04e9 913e b402 c2bb ec4a 983e
000002c0: d163 57be 9739 0e3f a597 723f 0178 01be
000002d0: 084b 2a3f bf4c e73e 9bc7 933e ca71 343d
000002e0: af32 b83e 687f cdbd 85ff b83e a43e 553e
000002f0: 47b3 713e c656 f53d 9bf8 153f 942a 2a3e
00000300: 7a69 b9be 37d4 b7be 2949 c03e 9a0c 013f
00000310: 3d43 56be 21c0 353e a2f0 023e 59a1 65bc
00000320: cff7 65bf 509b 21bf 99a0 c5bd db30 253e
00000330: 518f 6f3e c2b2 5ebe 707c c9be 4e93 883d
00000340: 2936 19bf 170b 10bf 558e 1dbf eac9 f2be
00000350: 69a5 aabe 0dda 4f3e 0e24 233f 1607 f93d
00000360: 6992 39be 29c8 103d 5c86 db3e dae3 a1bd
00000370: 401d 01be 9638 de3d 4f6d a13c fba6 b3be
00000380: aca8 42be eb81 81be ce4d b2be fc56 0b3f
00000390: 6c50 ff3e 72ca 97be ce90 0c3f 9576 523e
000003a0: d7cb 843e 2f64 b7be 1a19 ef3e 3f94 29be
000003b0: 517e 9e3e dd44 153f e8e8 423f 079f 0f3d
000003c0: 23c3 36be 86c6 f93e 32d3 de3c 8238 253f
000003d0: ef12 243f 0ffb 27bf 65fa 3dbf 4841 4bbf
000003e0: f7de 0c3f d174 503e e8c0 bf3f 7ebe 8b3d
000003f0: 5bde 0b3d a24c 543e 77aa b93e bd4c bb3d
0.18176967 0.44053832 1.8115411 0.63943917 0.23185019 -0.015113219 0.36617595 -0.1826018
0.4413572 -0.23580822 1.940254 0.54255396 -0.013635658 -0.23596208 -0.19116111 -0.19899172
0.045742348 -0.43532035 -0.21563815 -0.22046804 0.20676658 0.07560052 -0.19032305 0.10258822
-0.22756079 0.021024812 1.3533006 0.6613035 0.15816578 0.3408696 0.46545392 -0.10912201
0.15667275 0.4648126 0.28136745 -0.044792052 0.21110356 -0.4421557 0.3242627 -0.38052955
0.043419033 -0.41262352 0.37773782 -0.14096358 -0.65756613 0.18941033 0.58042747 0.39615908
-0.23977722 0.3453502 0.69987935 0.2258735 -0.33013856 -0.50832796 -0.0011921747 0.48935804
-0.054584686 -0.80384946 -0.14581212 -0.011305743 0.025870072 -0.27643028 0.67751825 -0.22898085
-0.18379907 -0.84881157 -0.4782084 -0.360103 -0.25143808 0.27415913 0.099488474 0.34323812
-0.629745 0.04985677 -1.9409847 -0.5716085 0.5793457 0.573386 0.23694667 0.536097
0.008514405 -0.34652248 -0.021536967 -0.30930698 0.37137324 0.0048619206 0.10459819 0.43805206
0.048320346 -0.09600643 -0.53923315 0.6432563 0.09307937 -0.3385847 -0.54931015 0.332599
0.15260597 0.049469166 -0.22707371 0.065638036 0.4134525 -0.3989842 -0.89425415 -0.6476035
0.12499547 0.075665146 0.51305425 0.018006153 -0.076603726 0.12450122 0.5325567 0.5458024
0.21014524 0.5103097 1.8577461 0.6807859 0.021635449 0.2712402 -0.00863295 0.3913412
-0.25591075 0.08604726 -0.071605526 0.33869126 -0.26934427 0.47774616 -1.4695421 -0.7402361
0.46690992 0.010912229 0.38167566 0.2932176 -0.14237502 0.79887706 -0.8129676 0.00023860602
0.74697113 -0.3368874 -1.2018685 -0.5003084 0.15449202 -0.36479625 0.10593472 -0.063752964
0.017055687 0.22719723 -0.25052822 -0.03763922 -0.2509191 -0.09914009 0.6057787 0.09359325
0.6358694 0.4594014 0.11051304 0.2080528 0.29484192 0.04199213 0.73931885 -0.25287712
0.018777417 0.28332016 0.09113772 -0.011735474 0.03863655 0.4251034 -0.040399496 0.39693016
-0.14553766 -0.008937448 0.10846001 -0.10344073 -0.14249115 0.2849809 -0.0059207324 0.2974466
-0.2103417 0.55556625 0.9476264 -0.12643434 0.6652074 0.4517574 0.28863224 0.04405383
0.3597617 -0.100340664 0.36132446 0.20824677 0.23603545 0.11979441 0.58582467 0.16617805
-0.36213285 -0.35904095 0.37555817 0.50409853 -0.20924087 0.17749073 0.12787107 -0.014015519
-0.8983125 -0.63127613 -0.09649772 0.16131918 0.23394515 -0.21747878 -0.3935275 0.06668721
-0.59848267 -0.5626692 -0.61545306 -0.47419673 -0.33329323 0.20298024 0.6372689 0.12159555
-0.18122257 0.035347138 0.42875946 -0.07904787 -0.12608814 0.10850637 0.019705443 -0.35088333
-0.19009656 -0.25294432 -0.34824985 0.544296 0.49866045 -0.2964664 0.54908454 0.20553048
0.25936767 -0.35818622 0.46698838 -0.16560458 0.30955747 0.583082 0.76136637 0.03506377
-0.17847876 0.48784274 0.027200315 0.6453935 0.6409139 -0.6561746 -0.74210197 -0.79396486
0.5502772 0.20357062 1.4980745 0.06823443 0.0341476 0.20732358 0.36262867 0.09145496

shared.2.bias f4 [64]
00000000: b4d7 96be 9386 95bd fbca 663e 7736 b6be
00000010: 47aa 633e b80e 8f3e a1e5 8cbe a841 a1be
00000020: 4235 933e 634b 93be ef87 a23e bebf 053e
00000030: f98d bebe a6ce a2be 8e97 17be 1acd 4bbe
00000040: bc73 62be 0514 4b3e 9e0b 923e 4f07 a53e
00000050: 3198 2a3e fa0d abbe e254 363e 9a8a 123e
00000060: 56c3 8f3e f0f4 a93e 2e10 8d3e 7809 8e3e
00000070: 3ad3 6a3e 6030 503e d42d 32bd 592b b2bd
00000080: 88a2 a43e 9ab4 6cbe 05dd fc3c 0195 823e
00000090: 128a 34be 6bf3 4f3e 7fbf 993e d2c3 9b3e
000000a0: 135e b03e 5834 97be cd3e 17be 9d5f 7d3e
000000b0: 2638 66be 3370 3e3e 0195 1ebe 4a61 a43e
000000c0: e930 4c3e 5397 3e3e d7f5 d5bd 8d7e 933e
000000d0: a6a8 b13e d77d b3bd c2a4 a5be fee6 9c3e
000000e0: 9e0d 873e d2c7 443e 326f 9abe b468 7bbe
000000f0: 69f7 bfbe 8548 5ebe b1ac 61be 6d39 21be
-0.29461443 -0.073010586 0.22538368 -0.35588428 0.22232924 0.27940917 -0.27518943 -0.31495404
0.2875157 -0.28768453 0.31744334 0.13061425 -0.37217692 -0.31798285 -0.14803907 -0.19902459
-0.22114462 0.19831856 0.28524488 0.3223214 0.16659619 -0.334091 0.17805818 0.14310685
0.28078717 0.33194685 0.27551407 0.277416 0.22932139 0.20330954 -0.043500736 -0.08699674
0.32155252 -0.23115769 0.03086711 0.25504306 -0.17630795 0.203077 0.30028912 0.30422837
0.34446773 -0.29532123 -0.1477005 0.24743505 -0.22482356 0.18597488 -0.15486528 0.32105476
0.19940533 0.18612413 -0.10447281 0.28807488 0.3469898 -0.087642364 -0.32352263 0.30644983
0.26377577 0.1921685 -0.3016296 -0.2455166 -0.37493446 -0.21707352 -0.22038533 -0.15744562

shared.2.weight f4 [64, 64]
00000000: 6fdd 343f 8c71 58be a768 a93e de91 85be
00000010: d885 a8be 2065 8bbe b6c3 d73e 6e75 64be
00000020: e0d8 9fbe e2d1 a5be 863f 51be 49c1 953e
00000030: 3dd6 2bbe e358 14be bc5c b93e 1bf5 a4be
00000040: fcd4 c53e e2d4 cebe fef2 103f 9664 85be
00000050: 927a 973b dec7 d5be a5d2 13be f0e2 07be
00000060: 7e03 96be 1b4c 273f 7559 b5be c4a6 77be
00000070: a936 573f 2e43 abbe 98ca 2abe 7555 363f
00000080: 5718 30be c5d9 bb3e 3a0c f73e ee5e 6bbe
00000090: df45 0b3d 74d2 35be 45ac 09bd 8bf5 21be
000000a0: 6e86 80be fd0c a0be 592b 2abe 7e3b a1be
000000b0: 55bb 2fbd dd9e b9bc 3dff ddbe 8dd6 c2be
000000c0: 3a6b 0fbe 3d67 94be dc4b bf3e 88c9 89be
000000d0: 8232 0a3f d307 b3be 7c03 b6be 7a60 16be
000000e0: 9917 28be feed a8be 1d72 a0be 7b4a 5ebe
000000f0: a67b a8be 17b8 fc3e a036 533f ffce babe
00000100: b7f4 813f 6a2b e1bd da15 043f fce1 b6bd
00000110: aa9a 13be 9d83 b9bc 5528 9e3e 6107 72bd
00000120: ef8e 443d 1ee0 1dbe af66 81be da8b 873e
00000130: b8d5 b3bd 1595 31bd a4d6 b3bd 698c 85be
00000140: d67c 483d d703 3ebd e777 633e cd6d 4d3e
00000150: 53ab 8fbd b2b1 8dbd 4c31 4abe eef5 40be
00000160: c0ff 8dbd ae70 1c3f ee23 cabc 0800 5f3b
00000170: ad6f 913f 21a8 a9bd fc6d f4bd 3263 ca3e
00000180: fbf4 f9bd 6e4f eb3e 2c41 b83e 697e 3bbd
00000190: d730 023c dbbc a3be a3ee ac3d e14e 0abd
000001a0: bfc4 613d 16cf 023e 0515 76be c4ee bbbc
000001b0: 3b34 9a3d 77c3 913e 413d 96bd 03b1 d9bd
000001c0: d520 6e3d 1ede f2bc f09a 5b3c f1a5 e0bd
000001d0: 7d9e 203e f7be 31bd f730 87bd 1f99 79be
000001e0: 04a6 3ebe 41be 36bd e644 27bd 1b66 063d
000001f0: 512c 243c 344f 003f 0d79 793f 036c 56bd
00000200: 03d0 5bbf b80e 383e e78e b2be 7ba0 893e
00000210: 070f 7c3e 08b1 693e ccff fdbe 8541 7f3e
00000220: 467d 6e3e 6848 b03d 2c2f 153e f8f4 7cbe
00000230: 8e89 9e3e 05f7 fe3c a828 f5be 8fde 913e
00000240: a543 27bf 0a18 b23e 466e 10bf 4ea0 203e
00000250: d94b 153e 0077 853e bd12 7e3e ce89 373e
00000260: cb4e 073e 17aa 1dbf 6b63 b43e a168 603e
00000270: 9109 5fbf fc91 a03e 7ec3 8a3e 7fda 2abf
00000280: fef0 883e c8d0 e4be 5250 07bf 7c13 8e3e
00000290: aba6 573d 1beb b43e 582e 9d3d 6367 343e
000002a0: 4dd2 a03e 85af a83e bcd8 233e 6155 343e
000002b0: 3537 af3c 6b3c fabc 3a9d 573e ec11 833e
000002c0: fc17 8fbc accf 703e e9ab 8bbe 27ab 843e
000002d0: 5b77 3fbf 18c0 773e 4ed9 523e eb31 333e
000002e0: bd6e 2f3e 23ac 933e 19b1 323e c117 9b3e
000002f0: 15c8 183e 15e6 05bf 15fe 53bf 9cec ab3e
00000300: 7c18 1f3f 6ca5 33be 1e30 983e 5a04 9dbe
00000310: 4a9f 85be 9a65 00be 714e e13e 71ff 6cbe
00000320: 3e53 8cbe 393a 3cbe 689a 3ebe 813d e03e
00000330: 6e4b a9be 572a 18be 50e0 dc3e da60 6dbe
00000340: 8f2d b63e 2b85 bfbe fdfa d23e a9e1 c3be
00000350: 1d1b 58be 3dbd b3be 2d0d ffbd c630 90be
00000360: 85db 32be b5d0 2a3f fe77 c2be bd4e 5bbe
00000370: 224f 603f 8188 c2be 3dd7 afbe b777 063f
00000380: 771d cabe 97d1 ff3e 255d 0c3f 045e c3be
00000390: 6c47 09be 0246 95be a643 2cbe 8026 1fbe
000003a0: b95b abbe 0e51 32be ec1b 13be 17ba a2be
000003b0: 7c5a 01be c425 bc3d 0010 d7be 5e91 43be
000003c0: 97e1 99bd 8ad5 f4bd 0577 9b3e 1bd7 68be
000003d0: 579a 323f 39e5 7bbe b909 74be 1a84 46bd
000003e0: 252a 76be cd78 52be 9e54 3cbe b9d5 73be
000003f0: cde3 39be 52d7 f83e 9e02 5c3f 29b2 80be
0.7065038 -0.21137065 0.33087656 -0.2608785 -0.32914615 -0.2722559 0.42141503 -0.22310421
-0.3122015 -0.3238669 -0.20434389 0.29249027 -0.16780944 -0.14487033 0.36203563 -0.3221825
0.38639057 -0.40396792 0.56620777 -0.26053303 0.004622766 -0.4175405 -0.14435823 -0.13270164
-0.2929954 0.653505 -0.35419813 -0.2418471 0.8406778 -0.33449692 -0.16678846 0.7122415
-0.17196785 0.36689582 0.48251516 -0.22985432 0.03400218 -0.17756063 -0.033611555 -0.15816323
-0.25102562 -0.3125991 -0.16618098 -0.314907 -0.042903263 -0.02265876 -0.43358794 -0.38054314
-0.14005747 -0.28985015 0.37362564 -0.2691157 0.5398332 -0.34966907 -0.35549533 -0.1468524
-0.16415252 -0.32994074 -0.31337062 -0.217081 -0.32906836 0.493592 0.82505226 -0.3648605
1.0152806 -0.10994609 0.5159584 -0.08929822 -0.14414468 -0.022645766 0.30890146 -0.05908907
0.047987875 -0.15417525 -0.25273654 0.26473886 -0.08780998 -0.043355066 -0.08781174 -0.26083687
0.048947178 -0.04639038 0.22213708 0.20061417 -0.070150994 -0.06918658 -0.19745368 -0.18843815
-0.06933546 0.61109436 -0.024675336 0.0034027118 1.1362206 -0.08284021 -0.1193504 0.39528805
-0.122049294 0.45959038 0.35987222 -0.04577485 0.007946215 -0.31980023 0.08443954 -0.03376663
0.055119272 0.1277431 -0.24031456 -0.022941 0.075294934 0.2846944 -0.07335902 -0.106294654
0.05813678 -0.02964693 0.013403639 -0.10969151 0.15685458 -0.04339501 -0.06601136 -0.24374817
-0.18618017 -0.044615034 -0.04083719 0.03281222 0.0100203315 0.50120854 0.97450334 -0.0523491
-0.85864276 0.17974365 -0.3487465 0.2688025 0.24615107 0.22821438 -0.4960922 0.24927337
0.23289976 0.086075604 0.14568776 -0.24702823 0.3096432 0.031123647 -0.4788258 0.2849011
-0.6533759 0.34783965 -0.56418264 0.15686151 0.14579715 0.26067352 0.24811836 0.17923662
0.13213651 -0.6158766 0.352321 0.21914913 -0.8712397 0.31361377 0.27102274 -0.6673965
0.26746362 -0.44690537 -0.52856934 0.2774924 0.05264918 0.3533562 0.07674855 0.17617564
0.31410447 0.3294641 0.16000646 0.17610694 0.02138863 -0.030546388 0.21056071 0.2559961
-0.017467491 0.2351672 -0.27279595 0.2591183 -0.74791497 0.24194372 0.20590708 0.17499511
0.17132087 0.28842267 0.1745037 0.3029156 0.14920075 -0.523042 -0.82809573 0.33578956
0.62146735 -0.17543572 0.2972421 -0.30667382 -0.2609809 -0.12538758 0.4400516 -0.23144318
-0.2740726 -0.18381585 -0.18613589 0.43796924 -0.3306536 -0.14859901 0.43139887 -0.23181477
0.35581633 -0.37406287 0.41207114 -0.38258103 -0.21104093 -0.35105315 -0.12453685 -0.2816221
-0.17466553 0.6672471 -0.37982172 -0.21416755 0.8762075 -0.3799477 -0.343439 0.5252642
-0.39475605 0.49964592 0.5482963 -0.38157666 -0.13406152 -0.29154974 -0.16822681 -0.1554203
-0.33468416 -0.17413732 -0.1436612 -0.317826 -0.12632173 0.09186891 -0.42004395 -0.19098422
-0.07513731 -0.11954792 0.30364242 -0.22738306 0.69766754 -0.2459916 -0.23831834 -0.048465826
-0.24039514 -0.20553894 -0.18391654 -0.23811997 -0.18153305 0.48601776 0.85941494 -0.25135925
