fast_ppo_cartpole.safetensors (safetensors, 19276 bytes, 7 tensors)

actor.bias f4 [2]
-0.061049234 0.06566538
00000000: c30e 7abd 927b 863d

actor.weight f4 [2, 64]
-0.0963292 0.12124135 0.0122495415 0.16536671 -0.05126785 0.033088055 0.017420506 -0.080264166
0.0970309 0.10354859 0.020091627 -0.060062744 -0.07561351 0.027715748 -0.04785455 0.14017239
-0.01675578 0.121521644 0.062131386 -0.0450917 0.07289183 -0.12563275 -0.24965872 0.051822413
-0.15972465 -0.078359716 -0.2982246 -0.044046972 -0.05694315 0.004286948 0.12549578 -0.068815194
-0.044848107 0.49428365 -0.09471294 -0.12993824 -0.11000085 0.06151136 -0.026755659 -0.041753117
-0.23083353 0.06519353 0.14481542 -0.010344077 -0.06983499 0.081579015 -0.024964979 -0.05400301
0.21367975 0.087360054 0.07375121 0.0012862474 -0.06418601 -0.1170988 -0.19368504 -0.18090314
-0.15543833 -0.048058465 0.055810787 -0.16954803 -0.23508823 -0.027912773 -0.058054537 0.08253769
-0.056698687 -0.013642261 0.17023334 -0.14664313 -0.076449886 -0.13708356 0.09605329 0.031004254
-0.043755844 -0.07409885 -0.08677331 0.06575799 0.0741008 0.06620278 -0.13054644 -0.17686497
-0.09174764 0.034101147 0.05467581 0.010281079 0.14041394 0.24102445 0.29272977 -0.059915915
0.1419748 0.107660875 0.21588929 -0.023050267 -0.11798049 0.009334559 -0.19682102 0.059768196
-0.0688428 -0.49278998 -0.10413667 0.08179002 0.2525094 0.0032078167 0.07939833 -0.03763253
0.04476718 0.014549152 -0.06282576 -0.13914739 0.06057008 0.00032854424 0.035679314 0.009385142
-0.19045287 0.048920408 -0.109047055 0.050412536 -0.082193635 0.061757244 0.22384864 0.2885988
2.188065e-05 -0.03002039 -0.05685203 -0.0013778674 0.28142178 0.13760276 -0.11112364 -0.05178805
00000000: 3e48 c5bd 634d f83d 4db2 483c e455 293e
00000010: 3dfe 51bd 5787 073d 73b5 8e3c 8a61 a4bd
00000020: 23b8 c63d 4811 d43d 3297 a43c 5a04 76bd
00000030: 42db 9abd 230c e33c 2203 44bd 5a89 0f3e
00000040: 6b43 89bc 57e0 f83d 7b7d 7e3d 13b2 38bd
00000050: 5048 953d dfa5 00be 89a6 7fbe bd43 543d
00000060: dc8e 23be 0f7b a0bd e5b0 98be 996a 34bd
00000070: 383d 69bd 8779 8c3b f781 003e fbee 8cbd
00000080: a6b2 37bd bf12 fd3e dcf8 c1bd 880e 05be
00000090: 2048 e1bd 56f3 7b3d af2e dbbc 5105 2bbd
000000a0: a05f 6cbe 2f84 853d 7e4a 143e 347a 29bc
000000b0: a605 8fbd e612 a73d 5b83 ccbc 4332 5dbd
000000c0: ddce 5a3e d4e9 b23d e00a 973d 4d97 a83a
000000d0: f473 83bd 7fd1 efbd 5f55 46be ac3e 39be
000000e0: 3a2b 1fbe f4d8 44bd da99 643d 009e 2dbe
000000f0: f8ba 70be 54a9 e4bc 98ca 6dbd 8509 a93d
00000100: e23c 68bd ca83 5fbc a651 2e3e 9e29 16be
00000110: c291 9cbd a25f 0cbe 96b7 c43d a2fc fd3c
00000120: 5439 33bd 23c1 97bd 35b6 b1bd 20ac 863d
00000130: 29c2 973d 5395 873d f7ad 05be 171c 35be
00000140: 30e6 bbbd a5ad 0b3d bef3 5f3d f971 283c
00000150: acc8 0f3e 1dcf 763e ade0 953e 646a 75bd
00000160: d861 113e 4e7d dc3d 1512 5d3e ead3 bcbc
00000170: c19f f1bd faef 183c 738b 49be 7fcf 743d
00000180: 74fd 8cbd f84e fcbe 9b45 d5bd 8781 a73d
00000190: e948 813e 3c3a 523b 979b a23d 9124 1abd
000001a0: ca5d 373d 915f 6e3c cbaa 80bd a77c 0ebe
000001b0: 5518 783d 7640 ac39 7924 123d 23c4 193c
000001c0: 1406 43be c460 483d 1054 dfbd 607d 4e3d
000001d0: 2355 a8bd 2af5 7c3d 9438 653e 39c3 933e
000001e0: 578c b737 52ed f5bc addd 68bd 8f99 b4ba
000001f0: 8416 903e bde7 0c3e ca94 e3bd b51f 54bd

critic.weight f4 [1, 64]
-0.4502292 0.39539668 -0.5113399 0.41494048 0.43230096 -1.0846993 0.38598233 0.46106997
0.41949674 0.5391871 0.4561915 0.45016748 0.5127449 0.3793871 0.47539774 -0.98234135
0.37217987 -0.4207568 0.4415769 -0.3586315 0.48496434 -0.96943355 -0.53065026 -1.0620164
-0.70651263 -0.7102002 0.31769457 0.43665412 0.3896591 0.49120384 0.35541382 0.48281085
0.4401006 -0.3393198 0.40433466 -0.41097263 -0.61944664 0.4352468 -0.8149973 0.48428664
-1.0243595 0.4393801 0.35483977 -1.1147938 -0.5814716 0.37465093 0.49394202 0.4813681
-0.7409553 0.43949103 -0.85470545 0.40329173 0.4978706 -0.37147456 0.46598235 -0.62464106
-0.72223395 0.42880484 0.42183572 -0.8110106 -0.7006759 0.4832454 0.46307442 -0.4485721
00000000: 7184 e6be 6f71 ca3e 2ce7 02bf 1473 d43e
00000010: 8d56 dd3e 6dd7 8abf 7a9f c53e 5d11 ec3e
00000020: 47c8 d63e 2a08 0a3f ef91 e93e 5a7c e63e
00000030: 4043 033f 073f c23e 5567 f33e b97a 7bbf
00000040: 5c8e be3e 6f6d d7be 5e16 e23e 8c9e b7be
00000050: 3f4d f83e cc2c 78bf b2d8 07bf 27f0 87bf
00000060: 03de 34bf aecf 35bf dda8 a23e 2191 df3e
00000070: 6681 c73e 127f fb3e cdf8 b53e fc32 f73e
00000080: de54 e13e 53bb adbe f404 cf3e 016b d2be
00000090: 0e94 1ebf abd8 de3e aaa3 50bf 6bf4 f73e
000000a0: 361e 83bf 6ef6 e03e 8fad b53e 90b1 8ebf
000000b0: 53db 14bf 3fd2 bf3e f8e5 fc3e e175 f63e
000000c0: 3faf 3dbf f804 e13e facd 5abf 417c ce3e
000000d0: e5e8 fe3e ea31 bebe 3d95 ee3e 7ae8 1fbf
000000e0: 53e4 38bf 4f8c db3e dafa d73e 649e 4fbf
000000f0: 7f5f 33bf f16b f73e 1718 ed3e 3eab e5be

shared.0.bias f4 [64]
-0.2689078 0.6334322 0.7288981 0.22459891 -0.17718208 -0.74945927 0.25513214 -0.345657
0.4647841 0.0682398 -0.33229047 0.36209 0.4445998 -0.25524822 -0.8475545 -0.045764964
-0.43575633 -0.45579565 0.5020015 0.61124444 -0.43101057 0.68542784 -0.2588625 0.016152898
0.21611555 -0.47779652 0.55900073 0.66270655 0.17321976 0.2748089 -0.35749248 0.57543725
0.008338875 0.85795736 0.50622505 0.46440464 0.52523416 -0.24786419 0.4653811 0.060158864
-0.3271706 -0.43030462 0.6290657 0.77795994 -0.3395286 0.59795487 -0.2625102 0.785177
-0.6420322 -0.08999597 0.6954615 0.77626705 -0.24651535 0.8278778 0.34088108 0.62356675
0.4104803 0.7950891 -0.1508401 0.8461238 0.5284019 0.46293786 0.37373033 0.3252494
00000000: 48ae 89be 9d28 223f 1199 3a3f 42fd 653e
00000010: 386f 35be 90dc 3fbf aea0 823e f4f9 b0be
00000020: 2ef8 ed3e 4fc1 8b3d fa21 aabe dc63 b93e
00000030: 96a2 e33e e5af 82be 55f9 58bf 0b74 3bbd
00000040: 741b dfbe 0c5e e9be 2c83 003f 847a 1c3f
00000050: 6bad dcbe 3378 2f3f a089 84be 1553 843c
00000060: 654d 5d3e bfa1 f4be ac1a 0f3f 23a7 293f
00000070: 8560 313e c1b3 8c3e 4109 b7be db4f 133f
00000080: c79f 083c 18a3 5b3f f797 013f 72c6 ed3e
00000090: bf75 063f 1cd0 7dbe 6e46 ee3e 2469 763d
000000a0: e882 a7be e350 dcbe 730a 213f 6228 473f
000000b0: b1d6 adbe 9213 193f bd67 86be 5c01 493f
000000c0: 395c 24bf cf4f b8bd c409 323f 70b9 463f
000000d0: 856e 7cbe cdef 533f f787 ae3e 12a2 1f3f
000000e0: 792a d23e f68a 4b3f d475 1abe 929b 583f
000000f0: 5945 073f 3106 ed3e 9559 bf3e 1787 a63e

shared.0.weight f4 [64, 4]
0.616118 -0.24393138 0.058130074 -0.52028936 -0.22347285 0.3088824 -0.01568173 -0.116415404
0.2154495 -0.34719834 0.39110878 -0.50488675 -0.3262533 0.11937941 1.028605 -0.3279742
0.26422408 0.50120735 1.1905674 0.7001105 -0.63947827 -0.05740778 -1.4334142 0.2693533
0.62483877 0.13958746 0.030990887 -0.4539044 0.39602524 0.19019157 1.496133 0.48782936
-0.02947982 -0.29088113 0.4601248 -0.17499422 0.11167314 0.7353237 1.3264067 -0.042038407
0.6102426 -0.09015962 1.3987749 0.30880088 0.05113767 -0.15597463 -0.2934201 0.008697338
0.2803152 -0.24140725 0.45420545 -0.15094924 -0.66237587 -0.39907083 -0.12661277 0.27191335
-0.46220854 -0.2745096 -1.006899 -0.32763296 -0.50910586 -0.12633629 -1.6554747 -0.7697747
0.31831872 0.63966894 1.1813295 0.27523613 0.8181573 -0.056711514 0.055169784 -0.45084962
0.029772548 -0.32755005 0.4185653 -0.22158793 0.509995 -0.6196158 0.23765464 -0.22015509
0.41920093 0.50328714 0.13929425 -0.47900954 0.41707847 -0.37625822 0.64218336 0.0038288583
-0.61491805 -0.30498412 -0.785996 0.4446456 -0.0029396934 0.13499463 0.5587275 -0.72079206
-0.0066715623 -0.29584298 0.4099315 0.12619014 0.04228168 0.3984128 -0.58531696 -0.18393603
-0.1881939 -0.0630407 0.36794475 0.15465373 0.07264673 0.09571019 0.80726624 0.21381032
0.33952907 -0.42312384 -0.32254952 0.22941023 -0.026496766 0.14121933 0.57833713 -0.28746745
0.7864696 0.036084928 -0.12702002 -0.36877158 0.22818339 0.097302645 0.5232538 -0.0073704356
-0.0016307016 0.3455229 0.53141016 -0.5851368 -0.01814622 0.317053 0.758239 -0.11715776
-0.1484859 -0.06526648 0.13327505 -0.30529675 0.72947705 0.5592962 -0.5353358 0.074966215
-0.09126494 -0.26721504 0.4848413 -0.26773247 -0.07378978 -0.5093633 -1.0552523 -0.67008406
-0.24080211 0.16412309 0.52717096 0.40213546 0.61740124 0.43636197 -0.7129703 -0.40367097
-0.010181881 -0.08674147 0.7888311 0.49777135 -0.14756642 -0.008341506 0.84279126 0.3842275
0.15199386 -0.071505465 0.4097208 0.36002547 0.19394419 0.29711774 0.7672574 0.45208764
-0.63507676 -0.08485388 -0.4795969 0.50543 0.19829047 -0.049706098 -0.099618964 -0.3764527
0.5870819 -0.4718148 -1.0270509 -0.29814628 0.40423134 -0.25483295 0.08090996 -0.49464142
-0.2450153 -0.36632082 -0.86025983 -0.31590816 -0.1011865 -0.28436023 0.08065671 0.16550519
-0.21618035 -0.41770476 0.6964875 0.3338347 0.009561377 -0.26676467 0.2331211 -0.08494875
-0.31941968 -0.10779052 -1.2895725 -0.6166455 -0.23398499 -0.15227683 0.3354364 0.30518538
0.025514824 0.1944785 -0.1823347 -0.33720818 0.17422804 0.20169917 0.98864055 -0.010744744
0.024677254 0.11304719 1.0037541 0.018354045 0.10329528 0.14013393 0.032097887 0.3985016
-0.3759581 -0.08854596 -1.9161855 -0.6093088 0.1352121 0.3671039 0.49067864 0.4164205
-0.09320991 -0.11511719 0.06983246 0.12257684 -0.027765488 0.16285118 0.92593485 0.16312389
-0.23150833 0.33440942 0.05468785 0.057589956 -0.13705286 0.20075141 1.1017934 -0.62346864
00000000: e9b9 1d3f 26c9 79be cd19 6e3d af31 05bf
00000010: 11d6 64be d525 9e3e f976 80bc 336b eebd
00000020: cb9e 5c3e fbc3 b1be 693f c83e 4240 01bf
00000030: ac0a a7be 317d f43d 54a9 833f 3cec a7be
00000040: 6148 873e 204f 003f 8364 983f 713a 333f
00000050: d9b4 23bf 6c24 6bbd 1e7a b7bf ade8 893e
00000060: 6ff5 1f3f 04f0 0e3e 9ae0 fd3c 2866 e8be
00000070: d2c3 ca3e 94c1 423e 4981 bf3f c5c4 f93e
00000080: aa7f f1bc 5fee 94be 7a95 eb3e af31 33be
00000090: e3b4 e43d 2d3e 3c3f b2c7 a93f 7730 2cbd
000000a0: dc38 1c3f 9ba5 b8bd 0e0b b33f 261b 9e3e
000000b0: bc75 513d d0b7 1fbe 293b 96be 487f 0e3c
000000c0: 7985 8f3e 7633 77be 9e8d e83e 7092 1abe
000000d0: 7791 29bf 0353 ccbe c7a6 01be 3a38 8b3e
000000e0: 99a6 ecbe 868c 8cbe 11e2 80bf 82bf a7be
000000f0: c354 02bf 4d5e 01be 98e6 d3bf f40f 45bf
00000100: acfa a23e 58c1 233f ce35 973f c0eb 8c3e
00000110: c272 513f 554a 68bd b6f9 613d c3d5 e6be
00000120: 8fe5 f33c a4b4 a7be 314e d63e f2e7 62be
00000130: 088f 023f 249f 1ebf bd5b 733e 5670 61be
00000140: 81a1 d63e 6dd7 003f 27a3 0e3e bd40 f5be
00000150: 4f8b d53e eba4 c0be 2166 243f 95ed 7a3b
00000160: 456b 1dbf e126 9cbe 0937 49bf 97a8 e33e
00000170: dfa7 40bb 083c 0a3e c408 0f3f d485 38bf
00000180: 1f9d dabb bb78 97be 8be2 d13e fd37 013e
00000190: 8e2f 2d3d c3fc cb3e 55d7 15bf ba59 3cbe
000001a0: e7b5 40be 7c1b 81bd 4163 bc3e 8c5d 1e3e
000001b0: cfc7 943d b403 c43d 00a9 4e3f 18f1 5a3e
000001c0: c1d6 ad3e b0a3 d8be 3625 a5be 84ea 6a3e
000001d0: bf0f d9bc cd9b 103e e70d 143f ef2e 93be
000001e0: 1256 493f cacd 133d 8911 02be a1cf bcbe
000001f0: e8a8 693e 9c46 c73d f6f3 053f b283 f1bb
00000200: 44bd d5ba 61e8 b03e 7f0a 083f 86cb 15bf
00000210: 62a7 94bc c554 a23e f31b 423f 68f0 efbd
00000220: b00c 18be 6faa 85bd 4179 083e db4f 9cbe
00000230: 02bf 3a3f 092e 0f3f c40b 09bf e387 993d
00000240: 1de9 babd 69d0 88be 1e3d f83e 3b14 89be
00000250: 191f 97bd a265 02bf 8212 87bf a18a 2bbf
00000260: d494 76be e20f 283e adf4 063f b3e4 cd3e
00000270: 020e 1e3f d66a df3e 3985 36bf f6ad cebe
00000280: e7d1 26bc 83a5 b1bd d6f0 493f e3db fe3e
00000290: a71b 17be d0aa 08bc 2bc1 573f 78b9 c43e
000002a0: 47a4 1b3e 7571 92bd edc6 d13e 4255 b83e
000002b0: 4e99 463e d11f 983e fb6a 443f 0878 e73e
000002c0: 6494 22bf dfc7 adbd ba8d f5be dc63 013f
000002d0: a80c 4b3e 9f98 4bbd 0705 ccbd 69be c0be
000002e0: 004b 163f b691 f1be 6776 83bf a1a6 98be
000002f0: 69f7 ce3e 7779 82be 1fb4 a53d a441 fdbe
00000300: 4ae5 7abe 678e bbbe fd39 5cbf b7be a1be
00000310: de3a cfbd aa97 91be 582f a53d 317a 293e
00000320: 625e 5dbe 66dd d5be 014d 323f 62ec aa3e
00000330: 52a7 1c3c 6195 88be 4cb7 6e3e 9cf9 adbd
00000340: fa8a a3be 47c1 dcbd b610 a5bf 7bdc 1dbf
00000350: c399 6fbe 75ee 1bbe 52be ab3e 4241 9c3e
00000360: 7704 d13c 5f25 473e f3b5 3abe 8da6 acbe
00000370: d668 323e 3a8a 4e3e 8c17 7d3f b90a 30bc
00000380: f427 ca3c 4985 e73d 047b 803f 395b 963c
00000390: 7a8c d33d 457f 0f3e 1379 033d 6708 cc3e
000003a0: 957d c0be 9657 b5bd 9145 f5bf a9fb 1bbf
000003b0: 0a75 0a3e 0bf5 bb3e 3b3a fb3e 1135 d53e
000003c0: d6e4 bebd 90c2 ebbd 5204 8f3d 9109 fb3d
000003d0: 7374 e3bc 76c2 263e 110a 6d3f f309 273e
000003e0: 8510 6dbe b637 ab3e 5e00 603d 72e3 6b3d
000003f0: 9657 0cbe c791 4d3e 9107 8d3f a49b 1fbf

shared.2.bias f4 [64]
-0.23192486 0.2583493 0.089880325 0.24419996 0.21400265 -0.12897491 0.3280925 0.16056423
0.24154124 0.18413751 0.16146892 0.30212477 0.32736114 0.19837533 0.18559197 -0.076172985
0.21931855 -0.23478344 0.2031722 -0.3449196 0.2147132 -0.23255424 0.066592015 -0.10636197
0.07528814 -0.08971083 0.2058321 0.2890213 0.33566725 0.18919703 0.2931278 0.20958781
0.28500813 0.07916967 0.23987514 -0.35789618 0.017481742 0.20810744 -0.098692894 0.2863047
-0.0058705476 0.35644683 0.28742668 -0.10286607 0.042857785 0.32263935 0.15251863 0.19530562
-0.05858368 0.15117995 0.010544456 0.33871084 0.202526 -0.4116378 0.17769907 0.0781592
-0.09324867 0.23917702 0.35093844 -0.0488017 -0.24105902 0.13237996 0.3247851 -0.2665946
00000000: b67d 6dbe 5c46 843e 2d13 b83d 8e0f 7a3e
00000010: 8323 5b3e 0012 04be bdfb a73e f36a 243e
00000020: 9656 773e 8b8e 3c3e 1c58 253e 19b0 9a3e
00000030: e19b a73e e722 4b3e d20b 3e3e 9500 9cbd
00000040: 0b95 603e 126b 70be 600c 503e 4d99 b0be
00000050: c7dd 5b3e b322 6ebe 6561 883d 4ed4 d9bd
00000060: ab30 9a3d 50ba b7bd a6c5 523e 9afa 933e
00000070: 94dc ab3e debc 413e d914 963e 309e 563e
00000080: 96ec 913e b523 a23d d4a1 753e 2b3e b7be
00000090: df35 8f3c 1e1a 553e 801f cabd 8896 923e
000000a0: b95d c0bb 3380 b63e 9729 933e 72ab d2bd
000000b0: a58b 2f3d fc30 a53e d82d 1c3e 32fe 473e
000000c0: 71f5 6fbd ebce 1a3e a7c2 2c3c 826b ad3e
000000d0: fa62 4f3e 31c2 d2be bff6 353e ee11 a03d
000000e0: 29f9 bebd d2ea 743e 34ae b33e 4be4 47bd
000000f0: 2dd8 76be 9d8e 073e 3c4a a63e 167f 88be

shared.2.weight f4 [64, 64]
0.31976676 -0.15469769 -0.39699903 -0.34721062 0.7186958 0.535544 -0.18942688 0.6433686
-0.21948189 -0.21123123 0.7097241 -0.24250129 -0.43877357 0.29027548 0.8257735 0.40479332
0.6043258 0.38092902 -0.31005973 -0.40628704 0.07434245 -0.3218726 -0.05396182 -0.23417129
-0.13524795 0.34757775 -0.30060408 -0.2991249 -0.1827996 -0.25264987 0.4276366 -0.20305555
-0.25731 -0.26652402 -0.26291734 -0.1767914 -0.22866482 0.54738396 -0.09070592 -0.043040287
0.14418858 0.3025398 -0.18478125 -0.30717993 0.3060068 -0.15440217 0.51296324 -0.40451032
0.82279146 -0.15468991 -0.1422714 -0.22881049 0.45388585 -0.3428588 -0.13036934 -0.20390473
-0.21660033 -0.22289224 0.6495722 -0.33828968 -0.29442644 -0.3443484 -0.30794594 -0.2126795
-0.3206731 0.23389365 0.2739338 0.30697307 -0.79272157 -0.6331687 0.32330352 -0.6237957
0.3778449 0.1540379 -0.75522375 0.27765834 0.44112188 -0.37515295 -0.9291103 -0.24824221
-0.7445232 -0.42025506 0.41198686 0.5046162 -0.11050861 0.25187472 -0.022783253 0.22021857
0.22894551 -0.17438461 0.33594945 0.37846133 0.13169056 0.2245459 -0.29065716 0.30425423
0.28003567 0.22880343 0.30745348 0.31959373 0.2935219 -0.47069716 0.09693273 0.10706062
-0.042765286 -0.353056 0.20112486 0.16698633 -0.39682811 0.38276756 -0.48185125 0.40900904
-0.7967799 0.03449328 0.33523607 0.23445928 -0.4074527 0.31135595 0.3016012 0.2780192
0.3633844 0.25635123 -0.6618599 0.22422656 0.22168313 0.21337381 0.2976444 0.22462578
0.19894235 0.051835466 -0.037208423 0.009753998 0.6259791 -0.33791533 0.09383428 0.5677516
-0.1306115 0.1895726 0.6635211 -0.15834345 0.088824436 -0.23136887 -0.2926281 -0.38110146
0.5189174 0.33213812 -0.022383075 -0.078345105 0.0006962595 0.16822986 -0.20709388 -0.067623526
0.18651602 0.06868125 0.16318215 0.14709763 -0.17767833 0.022519236 0.25800848 0.17312208
0.04955304 0.22986753 -0.16361643 0.15678981 -0.06541546 -0.66373795 0.06521566 -0.055916928
0.054504137 0.13831788 0.2599488 0.26710787 -0.23493123 -0.009386524 -0.12402484 -0.008578172
-0.40607867 0.017067265 0.22764902 -0.053716883 -0.23232526 0.16328175 -0.13892828 0.3725973
0.25273302 0.07611623 -0.37435794 0.2460042 0.016284604 0.24986784 0.12786673 0.18125449
-0.42997846 0.3805282 0.22314711 0.35210335 -0.74957657 -0.7314781 0.17302267 -0.7857224
0.24301985 0.2137813 -0.6161101 0.17913432 0.34461483 -0.17043513 -0.8936695 -0.216356
-0.6324044 -0.4716883 0.34841055 0.4328757 -0.054755386 0.28748035 -0.19373949 0.24239062
0.022451513 -0.25009722 0.21711193 0.24928987 0.23139739 0.24031419 -0.29739457 0.25417852
0.15130642 0.3560725 0.2988848 0.26997367 0.20304592 -0.49094126 0.049951334 0.26353067
-0.30262598 -0.3930202 0.2378782 0.17337519 -0.29720846 0.3426319 -0.28975645 0.44376063
-0.8448267 -0.092991434 0.07566288 0.30128327 -0.22950347 0.30694324 0.24795444 0.33337188
0.223977 0.1783559 -0.50803757 0.23578683 0.2496647 0.3747308 0.27339506 0.30939692
00000000: 78b8 a33e 1269 1ebe 7543 cbbe 97c5 b1be
00000010: 73fc 373f 6919 093f 1ff9 41be ceb3 243f
00000020: dcbf 60be 004d 58be 7bb0 353f 4252 78be
00000030: eea6 e0be fd9e 943e e465 533f 1241 cf3e
00000040: 18b5 1a3f 2109 c33e 26c0 9ebe db04 d0be
00000050: db40 983d 7ccc a4be 1207 5dbd 99ca 6fbe
00000060: 707e 0abe b6f5 b13e c7e8 99be e626 99be
00000070: d12f 3bbe 535b 81be 2ff3 da3e cbed 4fbe
00000080: 23be 83be d675 88be 1a9d 86be ce08 35be
00000090: 1c27 6abe 5b21 0c3f 06c4 b9bd 034b 30bd
000000a0: 2ca6 133e 7fe6 9a3e 4c37 3dbe b046 9dbe
000000b0: ecac 9c3e 9a1b 1ebe 8f51 033f fa1b cfbe
000000c0: 76a2 523f 0867 1ebe 98af 11be 4c4d 6abe
000000d0: ba63 e83e 308b afbe 8a7f 05be 67cc 50be
000000e0: 7acc 5dbe dd3d 64be 5d4a 263f 4e34 adbe
000000f0: 10bf 96be 6f4e b0be 17ab 9dbe a8c8 59be
00000100: 442f a4be d181 6f3e 0d41 8c3e 932b 9d3e
00000110: cdef 4abf 5817 22bf 0a88 a53e 13b1 1fbf
00000120: e374 c13e 1cbc 1d3e 5856 41bf 3c29 8e3e
00000130: bada e13e 0c14 c0be 2cda 6dbf 3533 7ebe
00000140: 1399 3ebf ac2b d7be f1ef d23e 872e 013f
00000150: 5752 e2bd b9f5 803e f2a3 babc fa80 613e
00000160: b170 6a3e e191 32be 9101 ac3e afc5 c13e
00000170: e4d9 063e 5cef 653e 04d1 94be 36c7 9b3e
00000180: d660 8f3e 724b 6a3e 8b6a 9d3e caa1 a33e
00000190: 8148 963e 38ff f0be ab84 c63d 9942 db3d
000001a0: a72a 2fbd c2c3 b4be adf3 4d3e 77fe 2a3e
000001b0: 0e2d cbbe 1cfa c33e 35b5 f6be a269 d13e
000001c0: c4f9 4bbf d348 0d3d 10a4 ab3e 1816 703e
000001d0: a49d d0be 0c6a 9f3e 796b 9a3e 8858 8e3e
000001e0: 850d ba3e 7840 833e a76f 29bf a69b 653e
000001f0: e700 633e aa7e 5a3e d964 983e 4d04 663e
00000200: 8bb7 4b3e 6d51 543d dc67 18bd 3ccf 1f3c
00000210: 2b40 203f 3d03 adbe 302c c03d 2b58 113f
00000220: 05bf 05be 521f 423e 85dc 293f c924 22be
00000230: 96e9 b53d f6eb 6cbe 5ad3 95be bb1f c3be
00000240: c5d7 043f 020e aa3e b65c b7bc 6673 a0bd
00000250: 2f85 363a 7344 2c3e 6b10 54be 347e 8abd
00000260: 0efe 3e3e c1a8 8c3d 3919 273e c3a0 163e
00000270: 4ff1 35be 437a b83c b019 843e ea46 313e
00000280: 21f8 4a3d 6562 6b3e 118b 27be 828d 203e
00000290: 8af8 85bd bbea 29bf ca8f 853d 2609 65bd
000002a0: bb3f 5f3d 34a3 0d3e 0218 853e 5dc2 883e
000002b0: d091 70be efc9 19bc bc00 febd 768b 0cbc
000002c0: 8be9 cfbe a6d0 8b3c d31c 693e 3c06 5cbd
000002d0: ace6 6dbe 5533 273e 3743 0ebe 13c5 be3e
000002e0: 3966 813e d3e2 9b3d d8ab bfbe 86e8 7b3e
000002f0: 4a67 853c 5bdd 7f3e 7fef 023e c79a 393e
00000300: 2326 dcbe 98d4 c23e ad80 643e e446 b43e
00000310: 40e4 3fbf 2642 3bbf db2c 313e 1a25 49bf
00000320: 32da 783e 7ce9 5a3e 64b9 1dbf fd6e 373e
00000330: 5b71 b03e 8c86 2ebe 86c7 64bf 6d8c 5dbe
00000340: 41e5 21bf 2181 f1be de62 b23e e2a1 dd3e
00000350: 2f47 60bd a030 933e a563 46be 3f35 783e
00000360: 3cec b73c be0c 80be 9752 5e3e d845 7f3e
00000370: 70f3 6c3e ec14 763e 1a44 98be b023 823e
00000380: 12f0 1a3e 224f b63e 6e07 993e fd39 8a3e
00000390: 45eb 4f3e a75c fbbe c599 4c3d 7eed 863e
000003a0: cbf1 9abe f239 c9be 5896 733e 4489 313e
000003b0: b52b 98be 736d af3e f55a 94be 9834 e33e
000003c0: 9046 58bf 4b72 bebd 24f5 9a3d cd41 9a3e
000003d0: f502 6bbe aa27 9d3e c5e7 7d3e b8af aa3e
000003e0: 3a5a 653e eea2 363e c00e 02bf 1a72 713e
000003f0: 1aa8 7f3e b7dc bf3e 70fa 8b3e 4669 9e3e
