models/min_ppo_cartpole.safetensors (safetensors, 2492 bytes, 5 tensors)

actor.bias f4 [2]
0	0xbd9ae08d	-0.07562361
1	0x3e0af338	0.13569343

actor.weight f4 [2, 64]
0	0xbd8a1e52	-0.067440644
1	0xbd30faf9	-0.043208096
2	0xbea55a6e	-0.32295555
3	0xbe2a366b	-0.16622321
4	0xbd38a89f	-0.045082685
5	0x3ed43ff0	0.4145503
6	0xbe597128	-0.21234572
7	0x3e50d77c	0.20394701
8	0xbd84427f	-0.064579956
9	0x3dd9658c	0.10615072
10	0x3e436f52	0.19085434
11	0xbe29b6b4	-0.16573602
12	0x3e3ca187	0.18420993
13	0xbdf2613d	-0.11834953
14	0x3e0d6a3b	0.13810055
15	0x3e8d112a	0.27552158
16	0xbd8de9d6	-0.06929366
17	0xbd0083a9	-0.03137556
18	0x3d38ec06	0.045146964
19	0xbcaf46a8	-0.021395996
20	0xbd6997d2	-0.057029553
21	0x3e61d853	0.22055177
22	0x3c7d8fec	0.015476208
23	0x3e55d0d3	0.20880441
24	0x3e8edb97	0.2790191
25	0x3d9d6216	0.07684724
26	0xbe143081	-0.14471628
27	0xbe24d2dc	-0.16096061
28	0x3db7bdfd	0.08971784
29	0x3d944510	0.07239735
30	0xbdc16910	-0.09443867
31	0xbd9260b9	-0.07147355
32	0xbebd6d63	-0.36997518
33	0xbc4472ec	-0.01199029
34	0xbdc52f2f	-0.0962814
35	0x3e9424b6	0.28934258
36	0x3c91777d	0.017757172
37	0xbd8794eb	-0.06620201
38	0x3e6d35df	0.23165081
39	0xbd3a5c0f	-0.04549795
40	0xbc9a1893	-0.018810546
41	0xbeb0d84c	-0.3454002
42	0xbe370229	-0.17871918
43	0x3caecf23	0.021339005
44	0x3dc49254	0.095982224
45	0xbdc5110b	-0.09622391
46	0xbde85598	-0.11344451
47	0xbc0150bc	-0.007892784
48	0x3dec69fe	0.11543654
49	0x3e5345a6	0.20632038
50	0xbddd64d0	-0.10810244
51	0x3e77f13c	0.24213117
52	0xb9a52ff7	-0.0003150699
53	0x3d54f734	0.051993564
54	0xbe0d3d76	-0.13792977
55	0x3e921e1c	0.28538597
56	0x3d8e5034	0.06948891
57	0xbdbd006a	-0.092285946
58	0x3db5da4c	0.088795274
59	0xbdb3672b	-0.08759912
60	0xbdd1d8ef	-0.10246455
61	0xbdf7457c	-0.120738
62	0x3d17b4ec	0.037037775
63	0xbdf1d66a	-0.11808474
64	0x3e47984e	0.19491693
65	0xbca721f7	-0.020401938
66	0x3eb4b2c2	0.3529263
67	0x3baca9d6	0.0052692695
68	0x3d80e46e	0.062935695
69	0xbea7f02c	-0.32800424
70	0x3e378541	0.17921926
71	0xbe8a5795	-0.27019945
72	0x3d291827	0.0412828
73	0xbe326447	-0.17421065
74	0xbdcb8dc3	-0.09939148
75	0x3e787432	0.24263075
76	0xbe65cfc7	-0.22442542
77	0x3d72c207	0.05926707
78	0xbe09f6a4	-0.13472992
79	0xbe895fb7	-0.26830837
80	0x3da35507	0.07975202
81	0xbb0af689	-0.0021204075
82	0x3d0cbd88	0.03436044
83	0x3c18a749	0.009317228
84	0x3cf6fe77	0.030150635
85	0xbe09e38d	-0.1346571
86	0xbe1c5a45	-0.1526881
87	0xbe328a8f	-0.17435668
88	0xbe31dcaf	-0.1736934
89	0xbe61d61b	-0.22054331
90	0x3e98c25c	0.29835784
91	0x3e81b996	0.25336903
92	0x3d24be51	0.040220562
93	0x3e149d89	0.1451322
94	0xbccda26c	-0.025101863
95	0xbd783591	-0.06059796
96	0x3e435e4a	0.19078937
97	0x3d9413ea	0.07230361
98	0x3da206d7	0.07911461
99	0xbdbec27f	-0.09314441
100	0x3cf3586e	0.029705252
101	0x3dd91521	0.10599733
102	0xbeaca1b6	-0.33717126
103	0x3da43f4a	0.08019884
104	0x3d93bff6	0.07214348
105	0x3ecba929	0.39777496
106	0x3e37ad22	0.17937139
107	0x3d2af927	0.041741516
108	0x3dc769d8	0.09736985
109	0xbe01a6db	-0.12661307
110	0x3d16e046	0.036834978
111	0x3c20f7c9	0.009824702
112	0x3cc1d436	0.02366076
113	0xbe371de0	-0.1788249
114	0x3e2af65e	0.16695544
115	0xbdcf6b8f	-0.10127937
116	0x3d1850fc	0.037186608
117	0xbe05fd4c	-0.13084906
118	0xbcdd699b	-0.027027896
119	0xbe8ca2bb	-0.27467903
120	0xbdbb6361	-0.091498144
121	0xbd920898	-0.071305454
122	0xbd892787	-0.06696992
123	0x3e01ca5b	0.12674849
124	0x3e2528fd	0.16128917
125	0xbd8f1872	-0.069870844
126	0xbd9cb092	-0.076508656
127	0x3e364d1b	0.17802851

critic.weight f4 [1, 64]
0	0x3fab5560	1.3385429
1	0x3f9782bc	1.1836772
2	0x3fa73db8	1.306571
3	0xbf925ab0	-1.1433926
4	0x3fa70372	1.3047926
5	0x3fb004a8	1.3751421
6	0x3fb44ea8	1.4086504
7	0x3fb7a3df	1.4346884
8	0xc02348cf	-2.551319
9	0xbf892b92	-1.0716422
10	0x3faf7e73	1.3710464
11	0xbf8d28a6	-1.102803
12	0x3f8aa83f	1.0832595
13	0x3f985233	1.1900085
14	0x3f96161d	1.1725498
15	0x3f898e3d	1.0746533
16	0x3f9d4e59	1.2289535
17	0xbf905671	-1.127638
18	0xc027c567	-2.6214235
19	0x3fa0bf2f	1.2558345
20	0x3fa5be0e	1.2948625
21	0x3f9d0406	1.2266853
22	0xbf9dc8df	-1.2326926
23	0x3f9ea813	1.2395042
24	0x3fab20a0	1.3369331
25	0xbff94bc1	-1.9476243
26	0xc01d353b	-2.456374
27	0x3fa708a6	1.3049514
28	0x3f9f291e	1.2434423
29	0x3f8dc529	1.1075794
30	0x3f94820d	1.1602188
31	0x3f93f110	1.1557941
32	0x3fc5ff97	1.5468625
33	0x3f9e5004	1.2368169
34	0x3fb2de74	1.3974137
35	0x3fa5f459	1.2965194
36	0x3f8a7c48	1.0819178
37	0x3fa57661	1.2926751
38	0x3fbca31d	1.4737278
39	0xbf97171a	-1.1803925
40	0x3fa18b6d	1.2620674
41	0x3fc20e0c	1.5160537
42	0x3f9af18e	1.2104967
43	0x3fa699ed	1.3015724
44	0x3faad067	1.3344849
45	0x3f99028f	1.1953906
46	0x3f9d9e9f	1.2314032
47	0xbf971e2f	-1.1806086
48	0x3f994f79	1.1977378
49	0xbffa4b09	-1.9554149
50	0xc0393872	-2.8940701
51	0x3fb0c741	1.3810807
52	0x3fa5a567	1.2941102
53	0x3fa5c088	1.2949381
54	0x3f969672	1.1764662
55	0xc013503b	-2.3017719
56	0xc0399cfe	-2.900207
57	0x3f914620	1.1349525
58	0xbf8cb849	-1.0993739
59	0xc015dc0c	-2.3415556
60	0x3f9d2da1	1.227955
61	0xc01ed8e6	-2.4819884
62	0x3f97f9e5	1.1873137
63	0x3fb778ee	1.433378

shared.0.bias f4 [64]
0	0x3fb65d2a	1.4247181
1	0x3fdf5fa2	1.745106
2	0x3fad9954	1.3562417
3	0xbfbcc490	-1.4747486
4	0x3fb06260	1.3780022
5	0x3f9c6ab7	1.2220067
6	0x3fac6b09	1.3470165
7	0x3f903b5d	1.1268116
8	0xbf724e11	-0.9465037
9	0xbfcb48e9	-1.5881625
10	0x3fa2fe2e	1.273382
11	0xbfdb6788	-1.714097
12	0x3fda7d32	1.7069457
13	0x3fc0a6cd	1.5050904
14	0x3fcc4b1f	1.5960425
15	0x3fd867fc	1.6906734
16	0x3fc1898a	1.5120099
17	0xbfde13fe	-1.7349851
18	0xbf78d661	-0.97202116
19	0x3fb0fe84	1.3827672
20	0x3fb8e3f8	1.444457
21	0x3fd4e461	1.6632196
22	0xbfc45cdf	-1.5340842
23	0x3fb35f64	1.4013486
24	0x3fa60f25	1.2973372
25	0xbeee5372	-0.4654804
26	0xbe439cf4	-0.19102842
27	0x3faf174f	1.3678988
28	0x3fa847b8	1.3146887
29	0x3fd3a8f6	1.6535938
30	0x3fd2fbf4	1.648314
31	0x3fd118e8	1.6335726
32	0x3fa085ed	1.2540871
33	0x3fac61df	1.3467368
34	0x3fa22dd5	1.2670237
35	0x3fb05935	1.3777224
36	0x3fdcd91b	1.7253755
37	0x3fbacd4d	1.4593903
38	0x3f973e07	1.1815804
39	0xbfdf3d43	-1.744057
40	0x3fc60896	1.547137
41	0x3fa5c55e	1.2950857
42	0x3fc403c6	1.5313652
43	0x3fa61d68	1.2977724
44	0x3fb35624	1.4010663
45	0x3fd23c79	1.6424705
46	0x3fb06cdd	1.3783222
47	0xbfc3a83a	-1.5285714
48	0x3fcc1e8e	1.5946825
49	0xbecccbdc	-0.39999282
50	0xbf7e0169	-0.992209
51	0x3fa24082	1.2675936
52	0x3fbb3f2f	1.4628657
53	0x3fbe75fe	1.4879758
54	0x3fcf6d68	1.6205263
55	0xbe831296	-0.25600117
56	0xbf626c6c	-0.8844669
57	0x3fd3049e	1.6485784
58	0xbfd11a01	-1.6336061
59	0xbeb7a18d	-0.3586544
60	0x3fc5ab3b	1.544288
61	0xbf2709d3	-0.65249366
62	0x3fc68210	1.5508442
63	0x3fa4076a	1.2814763

shared.0.weight f4 [64, 4]
0	0xbeb9afd7	-0.36266968
1	0xbe0b0c44	-0.13578898
2	0x3f296a6e	0.66178024
3	0x3e2f87b8	0.17141616
4	0xbe26db91	-0.16294695
5	0xbf01b4f0	-0.50666714
6	0x3ee7243f	0.4514484
7	0xbeca70f3	-0.39539298
8	0xbe7cee77	-0.24700342
9	0xbd91d7df	-0.07121252
10	0x3f858ff4	1.0434556
11	0x3f13cecc	0.5773742
12	0x3da5ffef	0.08105456
13	0x3e2945b3	0.16530494
14	0xbe104822	-0.14090016
15	0x3ec6b4be	0.3880977
16	0x3e92ba38	0.286577
17	0xbf152ff2	-0.58276284
18	0x3eaf13e5	0.34194866
19	0x3ef50c73	0.4786106
20	0x3b6916ed	0.0035566643
21	0xbf00d44c	-0.5032394
22	0x3a35a383	0.0006928967
23	0xbf231fc3	-0.6372034
24	0xbec20d2e	-0.3790068
25	0xbd1603d1	-0.036624733
26	0x3e986dd9	0.29771307
27	0x3ea1ba20	0.31587315
28	0xbdad67d7	-0.084670715
29	0x3e240807	0.16018687
30	0xbed9ee38	-0.4256456
31	0xbf85fbb2	-1.0467436
32	0xbfb58330	-1.418066
33	0xbfb6f409	-1.4293224
34	0xc03070b3	-2.7568786
35	0xbef4f721	-0.47844794
36	0x3e9fcd95	0.31211534
37	0xbe465a93	-0.19370489
38	0xbf636072	-0.8881904
39	0x3e0b7995	0.13620599
40	0xbddebccc	-0.10875854
41	0x3e623012	0.2208865
42	0xbdebe365	-0.115179814
43	0xbf2a6d5c	-0.6657312
44	0xbd754a50	-0.059885323
45	0x3edcbb49	0.43111637
46	0x3ee3c2c6	0.44484538
47	0x3eb12856	0.34601086
48	0x3eb19f31	0.34691766
49	0xbebd5840	-0.36981392
50	0xbdb7dec0	-0.08978033
51	0xbf1b0507	-0.60554546
52	0xbd5efd29	-0.05444065
53	0xbec85d76	-0.39133805
54	0x3ec78d81	0.38975146
55	0x3df9d387	0.12198549
56	0xbe890828	-0.26764035
57	0x3dd5b905	0.1043568
58	0x3bfedcd9	0.007777792
59	0xbf173b96	-0.59075296
60	0x3e801ee1	0.2502356
61	0xbec0a680	-0.3762703
62	0xbf043b79	-0.5165325
63	0xbf1ae10d	-0.6049965
64	0x3eb6439f	0.35598466
65	0xbe118f5e	-0.14214846
66	0x3f3234c6	0.69611776
67	0x3c8e132c	0.017343126
68	0x3e828d6c	0.2549852
69	0x3e81da7f	0.25362012
70	0xbe242795	-0.16030724
71	0x3edef1f9	0.43543985
72	0xc0042bac	-2.0651655
73	0xbf3df8c4	-0.7420771
74	0xc050ed6d	-3.2644913
75	0xbf2da0bc	-0.67823386
76	0x3ea06b9d	0.31332102
77	0xbf1310a4	-0.57447267
78	0x3dc0e627	0.09418898
79	0x3f276922	0.65394795
80	0xbec6b43b	-0.3880938
81	0xbe274f3d	-0.16338821
82	0x3f0ef141	0.55836874
83	0xbde6e6f2	-0.11274518
84	0x3dd544dd	0.10413525
85	0xbdedc332	-0.11609496
86	0xbe1678e8	-0.1469456
87	0xbf06918e	-0.5256585
88	0xbd61cb31	-0.05512542
89	0x3d503048	0.050827295
90	0xbf18b127	-0.59645313
91	0xbe52df6a	-0.20593038
92	0x3d5aa4cc	0.05337982
93	0x3da8a46e	0.082344875
94	0xbebb1d2d	-0.36545697
95	0xbf33ed1e	-0.7028369
96	0x3e0cdf17	0.13756977
97	0x3d497bef	0.049190458
98	0xbe012654	-0.12612277
99	0xbf5b737b	-0.85723084
100	0xc00969f5	-2.147092
101	0xbf5b5fa1	-0.85692793
102	0xc031b54a	-2.77669
103	0xbf879425	-1.0592085
104	0x40144837	2.3169076
105	0x3f9c3507	1.2203683
106	0x40106b3f	2.2565458
107	0x3f9e4ff2	1.2368147
108	0x3c2e52cb	0.010639857
109	0x3e164dc0	0.14678097
110	0x3f4bed17	0.79658645
111	0x3eb34038	0.35009933
112	0xbe3c5f32	-0.18395689
113	0x3e4cd496	0.2000297
114	0x3f0185d5	0.50594836
115	0xbef06e6e	-0.4695925
116	0xbee5f69b	-0.44914708
117	0x3eba4a9f	0.36385056
118	0x3f03f86b	0.5155093
119	0xbec79647	-0.3898184
120	0xbb74d831	-0.0037360305
121	0xbef58670	-0.4795413
122	0x3ef1e4b3	0.47244796
123	0x3ddedd36	0.108820364
124	0x3eb2afbb	0.34899697
125	0xbefc191a	-0.492379
126	0x3ed3af18	0.41344523
127	0xbdf5cbac	-0.12001738
128	0xbe897db3	-0.26853713
129	0xbba11509	-0.0049158377
130	0x3f541090	0.8283777
131	0x3f2f8f85	0.6857837
132	0xbd0587c1	-0.03260017
133	0x3e7a5ffb	0.24450676
134	0xbe8223b2	-0.25417858
135	0x3e33db26	0.17564067
136	0xbe2aec17	-0.16691624
137	0x3ea7aef4	0.32750666
138	0x3d61339a	0.05498085
139	0xbe145bd6	-0.14488158
140	0x3eaedbf4	0.34152186
141	0xbe8e3ce4	-0.2778083
142	0x3f00463f	0.5010719
143	0xbf3f0df1	-0.7463065
144	0xbe6d5336	-0.23176274
145	0xbe67779f	-0.22604226
146	0x3e664d7c	0.22490495
147	0xbd20cced	-0.039257932
148	0xbe85ad74	-0.26108897
149	0xbe58d238	-0.21173942
150	0x3ea3c04f	0.31982657
151	0x3ee958d1	0.45575574
152	0x3e23b456	0.15986761
153	0xbd810264	-0.06299284
154	0xbf110e39	-0.5666233
155	0xbf778647	-0.96689266
156	0x3ec112e3	0.37709722
157	0xbd701666	-0.05861511
158	0xbe1ed7ae	-0.15511963
159	0x3df3cdb7	0.11904471
160	0xbea2121d	-0.31654444
161	0xbe6610da	-0.22467366
162	0x3f15c933	0.5851013
163	0x3eb39caf	0.35080478
164	0xbeae441b	-0.34036335
165	0xbc0aba25	-0.008467232
166	0x3f955302	1.1665957
167	0x3ed840ef	0.4223704
168	0x3d363aa6	0.044489525
169	0x3e6a3b6d	0.22874232
170	0x3f1af4a0	0.6052952
171	0x3eb3e756	0.35137433
172	0x3ed90b87	0.42391607
173	0xbea4e097	-0.32202598
174	0x3ed510fb	0.41614518
175	0x3dba8513	0.09107413
176	0xbdd6ad15	-0.104822315
177	0xbed7db41	-0.42159465
178	0x3ead8613	0.33891353
179	0x3e311076	0.17291436
180	0x3d06c8e5	0.03290643
181	0x3e3ce222	0.18445638
182	0x3f26e343	0.65190524
183	0xbf0ba8e1	-0.54554564
184	0xbee42023	-0.44555768
185	0x3e9871f5	0.29774442
186	0x3ed91f95	0.42406908
187	0xbf38732a	-0.72050726
188	0xbeba9f88	-0.36449838
189	0x3ef0bf23	0.47020826
190	0xbf1e7c3c	-0.61908317
191	0x3ecf6e3a	0.40513784
192	0xbdd3db60	-0.10344577
193	0x3ea935f0	0.33048964
194	0xbceaf0cc	-0.028679274
195	0xbf016cb1	-0.50556475
196	0xbfed272b	-1.8527578
197	0xbf4524d9	-0.7700935
198	0xc03fdf04	-2.9979868
199	0xbf7b9f62	-0.98290074
200	0xc011c22c	-2.2774763
201	0x3b723acd	0.0036961318
202	0xc03b2e7a	-2.9247117
203	0xbdd3a0aa	-0.103333786
204	0x3d144d7b	0.036206704
205	0x3da0dd02	0.07854654
206	0xbec75f06	-0.38939685
207	0xbf46f614	-0.77719235
208	0xbe883eee	-0.26610512
209	0xbea9d1ff	-0.33168027
210	0x3f2ccfbd	0.67504483
211	0xbd0ffb58	-0.03515181
212	0xbe9ac5b3	-0.30228958
213	0xbe9ca8ef	-0.30597636
214	0xbe3a5546	-0.18196592
215	0xbd934569	-0.07190973
216	0x3d6df526	0.05809512
217	0x3c34ed81	0.0110429535
218	0x3d80edfe	0.062953934
219	0x3e829a7e	0.25508493
220	0xbf8ad9f1	-1.084776
221	0xc00cee4d	-2.2020447
222	0xc01f8eeb	-2.493098
223	0xbf4ac112	-0.7920085
224	0xc0163094	-2.346715
225	0xbd0ef47e	-0.034901135
226	0xc03f6de0	-2.9910812
227	0xbf6753df	-0.9036235
228	0x3e9548d0	0.29157114
229	0xbe4a125f	-0.1973357
230	0x3f4ef042	0.80835354
231	0xbe34bff9	-0.17651357
232	0x3dafbf8e	0.08581458
233	0x3e87d8cb	0.26532587
234	0xbf2fe729	-0.687121
235	0x3b081baf	0.0020768454
236	0x40197b82	2.3981633
237	0x3fb8ce01	1.4437867
238	0x3fe5cde3	1.7953457
239	0x3f97b684	1.1852574
240	0x3ea04158	0.31299853
241	0xbd8c704f	-0.06857359
242	0x3f6034da	0.87580645
243	0x3ed0a0f5	0.407478
244	0xbfe2697f	-1.7688445
245	0xbf2540d0	-0.6455202
246	0xc00f8152	-2.242268
247	0xbf271be5	-0.6527694
248	0xbeac0ff0	-0.3360591
249	0x3ed85c48	0.42257905
250	0xbd8910a5	-0.06692628
251	0xbedf64b4	-0.43631518
252	0x3e5b677d	0.21426196
253	0xbf06513e	-0.52467716
254	0x3f8c478d	1.0959336
255	0x3ed806e8	0.4219277
